…
[2020-01-06 19:33:02] - slp - INFO -- BENCHMARK: load(*(<slp.util.embeddings.EmbeddingsLoader object at 0x7f86dc98b278>,), **{}) took: 35.44786787033081 sec
[2020-01-06 19:33:22] - slp - INFO -- Trainer configured to run experiment
	pretrained model: None None
	checkpoint directory: ../checkpoints
	patience: 10
	accumulation steps: 1
	non blocking: True
	retain graph: False
	device: cuda
	model dtype: torch.float32
	parallel: False
[2020-01-06 19:33:22] - slp - INFO -- Trainer will run for
model: HierAttNet(
  (sent_att_net): SentAttNet(
    (gru): GRU(600, 300, batch_first=True, bidirectional=True)
    (sent): Linear(in_features=600, out_features=600, bias=True)
    (context): Linear(in_features=600, out_features=1, bias=False)
    (fc): Linear(in_features=600, out_features=2, bias=True)
    (pack): PackSequence()
    (unpack): PadPackedSequence()
  )
  (word_att_net_text): WordAttNet(
    (gru): GRU(300, 300, batch_first=True, bidirectional=True)
    (word): Linear(in_features=600, out_features=600, bias=True)
    (context): Linear(in_features=600, out_features=1, bias=False)
    (lookup): Embedding(2196024, 300)
    (pack): PackSequence()
    (unpack): PadPackedSequence()
  )
)
optimizer: Adam (
Parameter Group 0
    amsgrad: False
    betas: (0.9, 0.999)
    eps: 1e-08
    lr: 0.0005
    weight_decay: 0
)
loss: CrossEntropyLoss()
[2020-01-06 19:41:55] - slp - ERROR -- Current run is terminating due to exception: .
[2020-01-06 19:41:55] - slp - ERROR -- Engine run is terminating due to exception: .
…
[2020-01-08 02:49:51] - slp - INFO -- BENCHMARK: load(*(<slp.util.embeddings.EmbeddingsLoader object at 0x7fca4da4b2e8>,), **{}) took: 2.0835070610046387 sec
[2020-01-08 02:50:00] - slp - INFO -- Trainer configured to run experiment
	pretrained model: None None
	checkpoint directory: ../checkpoints
	patience: 10
	accumulation steps: 1
	non blocking: True
	retain graph: False
	device: cuda
	model dtype: torch.float32
	parallel: False
[2020-01-08 02:50:00] - slp - INFO -- Trainer will run for
model: HierAttNet(
  (sent_att_net): SentAttNet(
    (gru): GRU(760, 300, batch_first=True, bidirectional=True)
    (sent): Linear(in_features=760, out_features=760, bias=True)
    (context): Linear(in_features=760, out_features=1, bias=False)
    (fc): Linear(in_features=760, out_features=2, bias=True)
    (pack): PackSequence()
    (unpack): PadPackedSequence()
  )
  (word_att_net_text): WordAttNet(
    (gru): GRU(300, 300, batch_first=True, bidirectional=True)
    (word): Linear(in_features=760, out_features=760, bias=True)
    (context): Linear(in_features=760, out_features=1, bias=False)
    (lookup): Embedding(2196024, 300)
    (pack): PackSequence()
    (unpack): PadPackedSequence()
    (lexicons): LexiconFeatures()
  )
)
optimizer: Adam (
Parameter Group 0
    amsgrad: False
    betas: (0.9, 0.999)
    eps: 1e-08
    lr: 0.0005
    weight_decay: 0
)
loss: CrossEntropyLoss()
[2020-01-08 02:50:00] - slp - ERROR -- Current run is terminating due to exception: an integer is required (got type str).
[2020-01-08 02:50:00] - slp - ERROR -- Engine run is terminating due to exception: an integer is required (got type str).
…
[2020-01-08 15:42:47] - slp - INFO -- BENCHMARK: load(*(<slp.util.embeddings.EmbeddingsLoader object at 0x7efe33e012e8>,), **{}) took: 7.033553838729858 sec
[2020-01-08 15:43:00] - slp - INFO -- Trainer configured to run experiment
	pretrained model: None None
	checkpoint directory: ../checkpoints
	patience: 10
	accumulation steps: 1
	non blocking: True
	retain graph: False
	device: cuda
	model dtype: torch.float32
	parallel: False
[2020-01-08 15:43:00] - slp - INFO -- Trainer will run for
model: HierAttNet(
  (sent_att_net): SentAttNet(
    (gru): GRU(760, 380, batch_first=True, bidirectional=True)
    (sent): Linear(in_features=760, out_features=760, bias=True)
    (context): Linear(in_features=760, out_features=1, bias=False)
    (fc): Linear(in_features=760, out_features=2, bias=True)
    (pack): PackSequence()
    (unpack): PadPackedSequence()
  )
  (word_att_net_text): WordAttNet(
    (gru): GRU(380, 380, batch_first=True, bidirectional=True)
    (word): Linear(in_features=760, out_features=760, bias=True)
    (context): Linear(in_features=760, out_features=1, bias=False)
    (lookup): Embedding(2196024, 300)
    (pack): PackSequence()
    (unpack): PadPackedSequence()
    (lexicons): LexiconFeatures()
  )
)
optimizer: Adam (
Parameter Group 0
    amsgrad: False
    betas: (0.9, 0.999)
    eps: 1e-08
    lr: 0.0005
    weight_decay: 0
)
loss: CrossEntropyLoss()
[2020-01-08 21:02:26] - slp - ERROR -- Current run is terminating due to exception: .
[2020-01-08 21:02:26] - slp - WARNING -- CTRL-C caught. Exiting gracefully...
[2020-01-08 21:02:31] - slp - INFO -- Trainer configured to run experiment
	pretrained model: None None
	checkpoint directory: ../checkpoints
	patience: 10
	accumulation steps: 1
	non blocking: True
	retain graph: False
	device: cuda
	model dtype: torch.float32
	parallel: False
[2020-01-08 21:02:31] - slp - INFO -- Trainer will run for
model: HierAttNet(
  (sent_att_net): SentAttNet(
    (gru): GRU(760, 380, batch_first=True, bidirectional=True)
    (sent): Linear(in_features=760, out_features=760, bias=True)
    (context): Linear(in_features=760, out_features=1, bias=False)
    (fc): Linear(in_features=760, out_features=2, bias=True)
    (pack): PackSequence()
    (unpack): PadPackedSequence()
  )
  (word_att_net_text): WordAttNet(
    (gru): GRU(380, 380, batch_first=True, bidirectional=True)
    (word): Linear(in_features=760, out_features=760, bias=True)
    (context): Linear(in_features=760, out_features=1, bias=False)
    (lookup): Embedding(2196024, 300)
    (pack): PackSequence()
    (unpack): PadPackedSequence()
    (lexicons): LexiconFeatures()
  )
)
optimizer: Adam (
Parameter Group 0
    amsgrad: False
    betas: (0.9, 0.999)
    eps: 1e-08
    lr: 0.0005
    weight_decay: 0
)
loss: CrossEntropyLoss()
[2020-01-08 21:56:22] - slp - INFO -- PyTorch version 1.2.0 available.
[2020-01-08 21:56:22] - slp - INFO -- Better speed can be achieved with apex installed from https://www.github.com/nvidia/apex .
…
[2020-01-08 23:38:21] - slp - INFO -- BENCHMARK: load(*(<slp.util.embeddings.EmbeddingsLoader object at 0x7fc2864112b0>,), **{}) took: 6.864372491836548 sec
[2020-01-08 23:38:35] - slp - INFO -- Trainer configured to run experiment
	pretrained model: None None
	checkpoint directory: ../checkpoints
	patience: 10
	accumulation steps: 1
	non blocking: True
	retain graph: False
	device: cuda
	model dtype: torch.float32
	parallel: False
[2020-01-08 23:38:35] - slp - INFO -- Trainer will run for
model: HierAttNet(
  (sent_att_net): SentAttNet(
    (gru): GRU(600, 380, batch_first=True, bidirectional=True)
    (sent): Linear(in_features=600, out_features=600, bias=True)
    (context): Linear(in_features=600, out_features=1, bias=False)
    (fc): Linear(in_features=600, out_features=2, bias=True)
    (pack): PackSequence()
    (unpack): PadPackedSequence()
  )
  (word_att_net_text): WordAttNet(
    (gru): GRU(300, 300, batch_first=True, bidirectional=True)
    (word): Linear(in_features=680, out_features=680, bias=True)
    (context): Linear(in_features=680, out_features=1, bias=False)
    (lookup): Embedding(2196024, 300)
    (pack): PackSequence()
    (unpack): PadPackedSequence()
    (lexicons): LexiconFeatures()
  )
)
optimizer: Adam (
Parameter Group 0
    amsgrad: False
    betas: (0.9, 0.999)
    eps: 1e-08
    lr: 0.0005
    weight_decay: 0
)
loss: CrossEntropyLoss()
[2020-01-08 23:38:42] - slp - ERROR -- Current run is terminating due to exception: input.size(-1) must be equal to input_size. Expected 600, got 680.
…
[2020-01-09 12:33:04] - slp - INFO -- BENCHMARK: load(*(<slp.util.embeddings.EmbeddingsLoader object at 0x7f5454cc7a20>,), **{}) took: 13.661686897277832 sec
[2020-01-09 12:33:27] - slp - INFO -- Trainer configured to run experiment
	pretrained model: None None
	checkpoint directory: ../checkpoints
	patience: 10
	accumulation steps: 1
	non blocking: True
	retain graph: False
	device: cuda
	model dtype: torch.float32
	parallel: False
[2020-01-09 12:33:27] - slp - INFO -- Trainer will run for
model: HierAttNet(
  (sent_att_net): SentAttNet(
    (gru): GRU(699, 399, batch_first=True, bidirectional=True)
    (sent): Linear(in_features=600, out_features=600, bias=True)
    (context): Linear(in_features=600, out_features=1, bias=False)
    (fc): Linear(in_features=600, out_features=2, bias=True)
    (pack): PackSequence()
    (unpack): PadPackedSequence()
  )
  (word_att_net_text): WordAttNet(
    (gru): GRU(300, 300, batch_first=True, bidirectional=True)
    (word): Linear(in_features=699, out_features=699, bias=True)
    (context): Linear(in_features=699, out_features=1, bias=False)
    (lookup): Embedding(2196024, 300)
    (pack): PackSequence()
    (unpack): PadPackedSequence()
    (lexicons): LexiconFeatures()
  )
)
optimizer: Adam (
Parameter Group 0
    amsgrad: False
    betas: (0.9, 0.999)
    eps: 1e-08
    lr: 0.0005
    weight_decay: 0
)
loss: CrossEntropyLoss()
[2020-01-09 12:37:12] - slp - ERROR -- Current run is terminating due to exception: .
[2020-01-09 12:37:12] - slp - ERROR -- Engine run is terminating due to exception: .
…
[2020-01-09 13:21:23] - slp - INFO -- BENCHMARK: load(*(<slp.util.embeddings.EmbeddingsLoader object at 0x7f0a251702e8>,), **{}) took: 2.5596237182617188 sec
[2020-01-09 13:21:33] - slp - INFO -- Trainer configured to run experiment
	pretrained model: None None
	checkpoint directory: ../checkpoints
	patience: 10
	accumulation steps: 1
	non blocking: True
	retain graph: False
	device: cuda
	model dtype: torch.float32
	parallel: False
[2020-01-09 13:21:33] - slp - INFO -- Trainer will run for
model: HierAttNet(
  (sent_att_net): SentAttNet(
    (gru): GRU(699, 300, batch_first=True, bidirectional=True)
    (sent): Linear(in_features=600, out_features=600, bias=True)
    (context): Linear(in_features=600, out_features=1, bias=False)
    (fc): Linear(in_features=600, out_features=2, bias=True)
    (pack): PackSequence()
    (unpack): PadPackedSequence()
  )
  (word_att_net_text): WordAttNet(
    (gru): GRU(300, 300, batch_first=True, bidirectional=True)
    (word): Linear(in_features=699, out_features=699, bias=True)
    (context): Linear(in_features=699, out_features=1, bias=False)
    (lookup): Embedding(2196024, 300)
    (pack): PackSequence()
    (unpack): PadPackedSequence()
    (lexicons): LexiconFeatures()
  )
)
optimizer: Adam (
Parameter Group 0
    amsgrad: False
    betas: (0.9, 0.999)
    eps: 1e-08
    lr: 0.0005
    weight_decay: 0
)
loss: CrossEntropyLoss()
[2020-01-09 13:43:08] - slp - ERROR -- Current run is terminating due to exception: .
[2020-01-09 13:43:08] - slp - WARNING -- CTRL-C caught. Exiting gracefully...
[2020-01-09 13:43:13] - slp - INFO -- Trainer configured to run experiment
	pretrained model: None None
	checkpoint directory: ../checkpoints
	patience: 10
	accumulation steps: 1
	non blocking: True
	retain graph: False
	device: cuda
	model dtype: torch.float32
	parallel: False
[2020-01-09 13:43:13] - slp - INFO -- Trainer will run for
model: HierAttNet(
  (sent_att_net): SentAttNet(
    (gru): GRU(699, 300, batch_first=True, bidirectional=True)
    (sent): Linear(in_features=600, out_features=600, bias=True)
    (context): Linear(in_features=600, out_features=1, bias=False)
    (fc): Linear(in_features=600, out_features=2, bias=True)
    (pack): PackSequence()
    (unpack): PadPackedSequence()
  )
  (word_att_net_text): WordAttNet(
    (gru): GRU(300, 300, batch_first=True, bidirectional=True)
    (word): Linear(in_features=699, out_features=699, bias=True)
    (context): Linear(in_features=699, out_features=1, bias=False)
    (lookup): Embedding(2196024, 300)
    (pack): PackSequence()
    (unpack): PadPackedSequence()
    (lexicons): LexiconFeatures()
  )
)
optimizer: Adam (
Parameter Group 0
    amsgrad: False
    betas: (0.9, 0.999)
    eps: 1e-08
    lr: 0.0005
    weight_decay: 0
)
loss: CrossEntropyLoss()
[2020-01-09 13:43:17] - slp - ERROR -- Current run is terminating due to exception: .
[2020-01-09 13:43:17] - slp - WARNING -- CTRL-C caught. Exiting gracefully...
…
[2020-01-09 13:46:34] - slp - INFO -- BENCHMARK: load(*(<slp.util.embeddings.EmbeddingsLoader object at 0x7fc2863ac2e8>,), **{}) took: 1.8979885578155518 sec
[2020-01-09 13:46:42] - slp - INFO -- Trainer configured to run experiment
	pretrained model: None None
	checkpoint directory: ../checkpoints
	patience: 10
	accumulation steps: 1
	non blocking: True
	retain graph: False
	device: cuda
	model dtype: torch.float32
	parallel: False
[2020-01-09 13:46:42] - slp - INFO -- Trainer will run for
model: HierAttNet(
  (sent_att_net): SentAttNet(
    (gru): GRU(699, 300, batch_first=True, bidirectional=True)
    (sent): Linear(in_features=600, out_features=600, bias=True)
    (context): Linear(in_features=600, out_features=1, bias=False)
    (fc): Linear(in_features=600, out_features=2, bias=True)
    (pack): PackSequence()
    (unpack): PadPackedSequence()
  )
  (word_att_net_text): WordAttNet(
    (gru): GRU(300, 300, batch_first=True, bidirectional=True)
    (word): Linear(in_features=699, out_features=699, bias=True)
    (context): Linear(in_features=699, out_features=1, bias=False)
    (lookup): Embedding(2196024, 300)
    (pack): PackSequence()
    (unpack): PadPackedSequence()
    (lexicons): LexiconFeatures()
  )
)
optimizer: Adam (
Parameter Group 0
    amsgrad: False
    betas: (0.9, 0.999)
    eps: 1e-08
    lr: 0.0005
    weight_decay: 0
)
loss: CrossEntropyLoss()
[2020-01-09 15:50:19] - slp - INFO -- Trainer configured to run experiment
	pretrained model: None None
	checkpoint directory: ../checkpoints
	patience: 10
	accumulation steps: 1
	non blocking: True
	retain graph: False
	device: cuda
	model dtype: torch.float32
	parallel: False
[2020-01-09 15:50:19] - slp - INFO -- Trainer will run for
model: HierAttNet(
  (sent_att_net): SentAttNet(
    (gru): GRU(760, 380, batch_first=True, bidirectional=True)
    (sent): Linear(in_features=760, out_features=760, bias=True)
    (context): Linear(in_features=760, out_features=1, bias=False)
    (fc): Linear(in_features=760, out_features=2, bias=True)
    (pack): PackSequence()
    (unpack): PadPackedSequence()
  )
  (word_att_net_text): WordAttNet(
    (gru): GRU(380, 380, batch_first=True, bidirectional=True)
    (word): Linear(in_features=760, out_features=760, bias=True)
    (context): Linear(in_features=760, out_features=1, bias=False)
    (lookup): Embedding(2196024, 300)
    (pack): PackSequence()
    (unpack): PadPackedSequence()
    (lexicons): LexiconFeatures()
  )
)
optimizer: Adam (
Parameter Group 0
    amsgrad: False
    betas: (0.9, 0.999)
    eps: 1e-08
    lr: 0.0005
    weight_decay: 0
)
loss: CrossEntropyLoss()
[2020-01-09 16:58:22] - slp - ERROR -- Current run is terminating due to exception: .
[2020-01-09 16:58:22] - slp - WARNING -- CTRL-C caught. Exiting gracefully...
[2020-01-09 16:58:28] - slp - INFO -- Trainer configured to run experiment
	pretrained model: None None
	checkpoint directory: ../checkpoints
	patience: 10
	accumulation steps: 1
	non blocking: True
	retain graph: False
	device: cuda
	model dtype: torch.float32
	parallel: False
[2020-01-09 16:58:28] - slp - INFO -- Trainer will run for
model: HierAttNet(
  (sent_att_net): SentAttNet(
    (gru): GRU(699, 300, batch_first=True, bidirectional=True)
    (sent): Linear(in_features=600, out_features=600, bias=True)
    (context): Linear(in_features=600, out_features=1, bias=False)
    (fc): Linear(in_features=600, out_features=2, bias=True)
    (pack): PackSequence()
    (unpack): PadPackedSequence()
  )
  (word_att_net_text): WordAttNet(
    (gru): GRU(300, 300, batch_first=True, bidirectional=True)
    (word): Linear(in_features=699, out_features=699, bias=True)
    (context): Linear(in_features=699, out_features=1, bias=False)
    (lookup): Embedding(2196024, 300)
    (pack): PackSequence()
    (unpack): PadPackedSequence()
    (lexicons): LexiconFeatures()
  )
)
optimizer: Adam (
Parameter Group 0
    amsgrad: False
    betas: (0.9, 0.999)
    eps: 1e-08
    lr: 0.0005
    weight_decay: 0
)
loss: CrossEntropyLoss()
[2020-01-09 20:54:47] - slp - ERROR -- Current run is terminating due to exception: .
[2020-01-09 20:54:47] - slp - WARNING -- CTRL-C caught. Exiting gracefully...
[2020-01-09 20:54:51] - slp - INFO -- Trainer configured to run experiment
	pretrained model: None None
	checkpoint directory: ../checkpoints
	patience: 10
	accumulation steps: 1
	non blocking: True
	retain graph: False
	device: cuda
	model dtype: torch.float32
	parallel: False
[2020-01-09 20:54:51] - slp - INFO -- Trainer will run for
model: HierAttNet(
  (sent_att_net): SentAttNet(
    (gru): GRU(699, 300, batch_first=True, bidirectional=True)
    (sent): Linear(in_features=600, out_features=600, bias=True)
    (context): Linear(in_features=600, out_features=1, bias=False)
    (fc): Linear(in_features=600, out_features=2, bias=True)
    (pack): PackSequence()
    (unpack): PadPackedSequence()
  )
  (word_att_net_text): WordAttNet(
    (gru): GRU(300, 300, batch_first=True, bidirectional=True)
    (word): Linear(in_features=699, out_features=699, bias=True)
    (context): Linear(in_features=699, out_features=1, bias=False)
    (lookup): Embedding(2196024, 300)
    (pack): PackSequence()
    (unpack): PadPackedSequence()
    (lexicons): LexiconFeatures()
  )
)
optimizer: Adam (
Parameter Group 0
    amsgrad: False
    betas: (0.9, 0.999)
    eps: 1e-08
    lr: 0.0005
    weight_decay: 0
)
loss: CrossEntropyLoss()
[2020-01-09 23:38:18] - slp - INFO -- Trainer configured to run experiment
	pretrained model: None None
	checkpoint directory: ../checkpoints
	patience: 10
	accumulation steps: 1
	non blocking: True
	retain graph: False
	device: cuda
	model dtype: torch.float32
	parallel: False
[2020-01-09 23:38:18] - slp - INFO -- Trainer will run for
model: HierAttNet(
  (sent_att_net): SentAttNet(
    (gru): GRU(699, 300, batch_first=True, bidirectional=True)
    (sent): Linear(in_features=600, out_features=600, bias=True)
    (context): Linear(in_features=600, out_features=1, bias=False)
    (fc): Linear(in_features=600, out_features=2, bias=True)
    (pack): PackSequence()
    (unpack): PadPackedSequence()
  )
  (word_att_net_text): WordAttNet(
    (gru): GRU(300, 300, batch_first=True, bidirectional=True)
    (word): Linear(in_features=699, out_features=699, bias=True)
    (context): Linear(in_features=699, out_features=1, bias=False)
    (lookup): Embedding(2196024, 300)
    (pack): PackSequence()
    (unpack): PadPackedSequence()
    (lexicons): LexiconFeatures()
  )
)
optimizer: Adam (
Parameter Group 0
    amsgrad: False
    betas: (0.9, 0.999)
    eps: 1e-08
    lr: 0.0005
    weight_decay: 0
)
loss: CrossEntropyLoss()
[2020-01-10 03:46:44] - slp - INFO -- Trainer configured to run experiment
	pretrained model: None None
	checkpoint directory: ../checkpoints
	patience: 10
	accumulation steps: 1
	non blocking: True
	retain graph: False
	device: cuda
	model dtype: torch.float32
	parallel: False
[2020-01-10 03:46:44] - slp - INFO -- Trainer will run for
model: HierAttNet(
  (sent_att_net): SentAttNet(
    (gru): GRU(699, 300, batch_first=True, bidirectional=True)
    (sent): Linear(in_features=600, out_features=600, bias=True)
    (context): Linear(in_features=600, out_features=1, bias=False)
    (fc): Linear(in_features=600, out_features=2, bias=True)
    (pack): PackSequence()
    (unpack): PadPackedSequence()
  )
  (word_att_net_text): WordAttNet(
    (gru): GRU(300, 300, batch_first=True, bidirectional=True)
    (word): Linear(in_features=699, out_features=699, bias=True)
    (context): Linear(in_features=699, out_features=1, bias=False)
    (lookup): Embedding(2196024, 300)
    (pack): PackSequence()
    (unpack): PadPackedSequence()
    (lexicons): LexiconFeatures()
  )
)
optimizer: Adam (
Parameter Group 0
    amsgrad: False
    betas: (0.9, 0.999)
    eps: 1e-08
    lr: 0.0005
    weight_decay: 0
)
loss: CrossEntropyLoss()
[2020-01-11 18:16:01] - slp - INFO -- PyTorch version 1.2.0 available.
[2020-01-11 18:16:01] - slp - INFO -- Better speed can be achieved with apex installed from https://www.github.com/nvidia/apex .
…
[2020-01-25 14:27:10] - slp - INFO -- BENCHMARK: load(*(<slp.util.embeddings.EmbeddingsLoader object at 0x7fd40c416240>,), **{}) took: 2.041234016418457 sec
[2020-01-25 14:27:18] - slp - INFO -- Trainer configured to run experiment
	pretrained model: None None
	checkpoint directory: ../checkpoints
	patience: 10
	accumulation steps: 1
	non blocking: True
	retain graph: False
	device: cuda
	model dtype: torch.float32
	parallel: False
[2020-01-25 14:27:18] - slp - INFO -- Trainer will run for
model: HierAttNet(
  (sent_att_net): SentAttNet(
    (gru): GRU(699, 300, batch_first=True, bidirectional=True)
    (sent): Linear(in_features=600, out_features=600, bias=True)
    (context): Linear(in_features=600, out_features=1, bias=False)
    (fc): Linear(in_features=600, out_features=2, bias=True)
    (pack): PackSequence()
    (unpack): PadPackedSequence()
  )
  (word_att_net_text): WordAttNet(
    (gru): GRU(300, 300, batch_first=True, bidirectional=True)
    (word): Linear(in_features=699, out_features=699, bias=True)
    (context): Linear(in_features=699, out_features=1, bias=False)
    (lookup): Embedding(2196024, 300)
    (pack): PackSequence()
    (unpack): PadPackedSequence()
    (lexicons): LexiconFeatures()
  )
)
optimizer: Adam (
Parameter Group 0
    amsgrad: False
    betas: (0.9, 0.999)
    eps: 1e-08
    lr: 0.0005
    weight_decay: 0
)
loss: CrossEntropyLoss()
[2020-01-25 18:58:03] - slp - INFO -- Trainer configured to run experiment
	pretrained model: None None
	checkpoint directory: ../checkpoints
	patience: 10
	accumulation steps: 1
	non blocking: True
	retain graph: False
	device: cuda
	model dtype: torch.float32
	parallel: False
[2020-01-25 18:58:03] - slp - INFO -- Trainer will run for
model: HierAttNet(
  (sent_att_net): SentAttNet(
    (gru): GRU(699, 300, batch_first=True, bidirectional=True)
    (sent): Linear(in_features=600, out_features=600, bias=True)
    (context): Linear(in_features=600, out_features=1, bias=False)
    (fc): Linear(in_features=600, out_features=2, bias=True)
    (pack): PackSequence()
    (unpack): PadPackedSequence()
  )
  (word_att_net_text): WordAttNet(
    (gru): GRU(300, 300, batch_first=True, bidirectional=True)
    (word): Linear(in_features=699, out_features=699, bias=True)
    (context): Linear(in_features=699, out_features=1, bias=False)
    (lookup): Embedding(2196024, 300)
    (pack): PackSequence()
    (unpack): PadPackedSequence()
    (lexicons): LexiconFeatures()
  )
)
optimizer: Adam (
Parameter Group 0
    amsgrad: False
    betas: (0.9, 0.999)
    eps: 1e-08
    lr: 0.0005
    weight_decay: 0
)
loss: CrossEntropyLoss()
[2020-01-25 22:53:38] - slp - INFO -- Trainer configured to run experiment
	pretrained model: None None
	checkpoint directory: ../checkpoints
	patience: 10
	accumulation steps: 1
	non blocking: True
	retain graph: False
	device: cuda
	model dtype: torch.float32
	parallel: False
[2020-01-25 22:53:38] - slp - INFO -- Trainer will run for
model: HierAttNet(
  (sent_att_net): SentAttNet(
    (gru): GRU(699, 300, batch_first=True, bidirectional=True)
    (sent): Linear(in_features=600, out_features=600, bias=True)
    (context): Linear(in_features=600, out_features=1, bias=False)
    (fc): Linear(in_features=600, out_features=2, bias=True)
    (pack): PackSequence()
    (unpack): PadPackedSequence()
  )
  (word_att_net_text): WordAttNet(
    (gru): GRU(300, 300, batch_first=True, bidirectional=True)
    (word): Linear(in_features=699, out_features=699, bias=True)
    (context): Linear(in_features=699, out_features=1, bias=False)
    (lookup): Embedding(2196024, 300)
    (pack): PackSequence()
    (unpack): PadPackedSequence()
    (lexicons): LexiconFeatures()
  )
)
optimizer: Adam (
Parameter Group 0
    amsgrad: False
    betas: (0.9, 0.999)
    eps: 1e-08
    lr: 0.0005
    weight_decay: 0
)
loss: CrossEntropyLoss()
[2020-01-26 00:58:08] - slp - ERROR -- Current run is terminating due to exception: .
[2020-01-26 00:58:08] - slp - WARNING -- CTRL-C caught. Exiting gracefully...
…
[2020-01-29 01:16:44] - slp - INFO -- BENCHMARK: load(*(<slp.util.embeddings.EmbeddingsLoader object at 0x7fd324c19f60>,), **{}) took: 2.3637776374816895 sec
[2020-01-29 01:16:53] - slp - INFO -- Trainer configured to run experiment
	pretrained model: None None
	checkpoint directory: ../checkpoints
	patience: 10
	accumulation steps: 1
	non blocking: True
	retain graph: False
	device: cuda
	model dtype: torch.float32
	parallel: False
[2020-01-29 01:16:53] - slp - INFO -- Trainer will run for
model: HierAttNet(
  (sent_att_net): SentAttNet(
    (gru): GRU(699, 300, batch_first=True, bidirectional=True)
    (sent): Linear(in_features=600, out_features=600, bias=True)
    (context): Linear(in_features=600, out_features=1, bias=False)
    (fc): Linear(in_features=600, out_features=2, bias=True)
    (pack): PackSequence()
    (unpack): PadPackedSequence()
  )
  (word_att_net_text): WordAttNet(
    (gru): GRU(300, 300, batch_first=True, bidirectional=True)
    (word): Linear(in_features=699, out_features=699, bias=True)
    (context): Linear(in_features=699, out_features=1, bias=False)
    (lookup): Embedding(2196024, 300)
    (pack): PackSequence()
    (unpack): PadPackedSequence()
    (lexicons): LexiconFeatures()
  )
)
optimizer: Adam (
Parameter Group 0
    amsgrad: False
    betas: (0.9, 0.999)
    eps: 1e-08
    lr: 0.0005
    weight_decay: 0
)
loss: CrossEntropyLoss()
[2020-01-29 22:48:54] - slp - ERROR -- Current run is terminating due to exception: .
[2020-01-29 22:48:54] - slp - WARNING -- CTRL-C caught. Exiting gracefully...
[2020-01-29 22:49:10] - slp - INFO -- Trainer configured to run experiment
	pretrained model: None None
	checkpoint directory: ../checkpoints
	patience: 10
	accumulation steps: 1
	non blocking: True
	retain graph: False
	device: cuda
	model dtype: torch.float32
	parallel: False
[2020-01-29 22:49:10] - slp - INFO -- Trainer will run for
model: HierAttNet(
  (sent_att_net): SentAttNet(
    (gru): GRU(699, 300, batch_first=True, bidirectional=True)
    (sent): Linear(in_features=600, out_features=600, bias=True)
    (context): Linear(in_features=600, out_features=1, bias=False)
    (fc): Linear(in_features=600, out_features=2, bias=True)
    (pack): PackSequence()
    (unpack): PadPackedSequence()
  )
  (word_att_net_text): WordAttNet(
    (gru): GRU(300, 300, batch_first=True, bidirectional=True)
    (word): Linear(in_features=699, out_features=699, bias=True)
    (context): Linear(in_features=699, out_features=1, bias=False)
    (lookup): Embedding(2196024, 300)
    (pack): PackSequence()
    (unpack): PadPackedSequence()
    (lexicons): LexiconFeatures()
  )
)
optimizer: Adam (
Parameter Group 0
    amsgrad: False
    betas: (0.9, 0.999)
    eps: 1e-08
    lr: 0.0005
    weight_decay: 0
)
loss: CrossEntropyLoss()
[2020-01-30 07:49:00] - slp - INFO -- Trainer configured to run experiment
	pretrained model: None None
	checkpoint directory: ../checkpoints
	patience: 10
	accumulation steps: 1
	non blocking: True
	retain graph: False
	device: cuda
	model dtype: torch.float32
	parallel: False
[2020-01-30 07:49:00] - slp - INFO -- Trainer will run for
model: HierAttNet(
  (sent_att_net): SentAttNet(
    (gru): GRU(699, 300, batch_first=True, bidirectional=True)
    (sent): Linear(in_features=600, out_features=600, bias=True)
    (context): Linear(in_features=600, out_features=1, bias=False)
    (fc): Linear(in_features=600, out_features=2, bias=True)
    (pack): PackSequence()
    (unpack): PadPackedSequence()
  )
  (word_att_net_text): WordAttNet(
    (gru): GRU(300, 300, batch_first=True, bidirectional=True)
    (word): Linear(in_features=699, out_features=699, bias=True)
    (context): Linear(in_features=699, out_features=1, bias=False)
    (lookup): Embedding(2196024, 300)
    (pack): PackSequence()
    (unpack): PadPackedSequence()
    (lexicons): LexiconFeatures()
  )
)
optimizer: Adam (
Parameter Group 0
    amsgrad: False
    betas: (0.9, 0.999)
    eps: 1e-08
    lr: 0.0005
    weight_decay: 0
)
loss: CrossEntropyLoss()
[2020-01-30 14:34:46] - slp - ERROR -- Current run is terminating due to exception: .
[2020-01-30 14:34:46] - slp - WARNING -- CTRL-C caught. Exiting gracefully...
[2020-01-30 14:34:53] - slp - INFO -- Trainer configured to run experiment
	pretrained model: None None
	checkpoint directory: ../checkpoints
	patience: 10
	accumulation steps: 1
	non blocking: True
	retain graph: False
	device: cuda
	model dtype: torch.float32
	parallel: False
[2020-01-30 14:34:53] - slp - INFO -- Trainer will run for
model: HierAttNet(
  (sent_att_net): SentAttNet(
    (gru): GRU(699, 300, batch_first=True, bidirectional=True)
    (sent): Linear(in_features=600, out_features=600, bias=True)
    (context): Linear(in_features=600, out_features=1, bias=False)
    (fc): Linear(in_features=600, out_features=2, bias=True)
    (pack): PackSequence()
    (unpack): PadPackedSequence()
  )
  (word_att_net_text): WordAttNet(
    (gru): GRU(300, 300, batch_first=True, bidirectional=True)
    (word): Linear(in_features=699, out_features=699, bias=True)
    (context): Linear(in_features=699, out_features=1, bias=False)
    (lookup): Embedding(2196024, 300)
    (pack): PackSequence()
    (unpack): PadPackedSequence()
    (lexicons): LexiconFeatures()
  )
)
optimizer: Adam (
Parameter Group 0
    amsgrad: False
    betas: (0.9, 0.999)
    eps: 1e-08
    lr: 0.0005
    weight_decay: 0
)
loss: CrossEntropyLoss()
[2020-01-31 00:02:37] - slp - ERROR -- Current run is terminating due to exception: .
[2020-01-31 00:02:37] - slp - WARNING -- CTRL-C caught. Exiting gracefully...
[2020-01-31 00:02:44] - slp - INFO -- Trainer configured to run experiment
	pretrained model: None None
	checkpoint directory: ../checkpoints
	patience: 10
	accumulation steps: 1
	non blocking: True
	retain graph: False
	device: cuda
	model dtype: torch.float32
	parallel: False
[2020-01-31 00:02:44] - slp - INFO -- Trainer will run for
model: HierAttNet(
  (sent_att_net): SentAttNet(
    (gru): GRU(699, 300, batch_first=True, bidirectional=True)
    (sent): Linear(in_features=600, out_features=600, bias=True)
    (context): Linear(in_features=600, out_features=1, bias=False)
    (fc): Linear(in_features=600, out_features=2, bias=True)
    (pack): PackSequence()
    (unpack): PadPackedSequence()
  )
  (word_att_net_text): WordAttNet(
    (gru): GRU(300, 300, batch_first=True, bidirectional=True)
    (word): Linear(in_features=699, out_features=699, bias=True)
    (context): Linear(in_features=699, out_features=1, bias=False)
    (lookup): Embedding(2196024, 300)
    (pack): PackSequence()
    (unpack): PadPackedSequence()
    (lexicons): LexiconFeatures()
  )
)
optimizer: Adam (
Parameter Group 0
    amsgrad: False
    betas: (0.9, 0.999)
    eps: 1e-08
    lr: 0.0005
    weight_decay: 0
)
loss: CrossEntropyLoss()
[2020-01-31 14:54:58] - slp - INFO -- PyTorch version 1.2.0 available.
[2020-01-31 14:54:59] - slp - INFO -- Better speed can be achieved with apex installed from https://www.github.com/nvidia/apex .
…
[2020-02-05 01:34:40] - slp - INFO -- BENCHMARK: load(*(<slp.util.embeddings.EmbeddingsLoader object at 0x7fba6cb49198>,), **{}) took: 2.1742894649505615 sec
[2020-02-05 01:34:47] - slp - INFO -- Trainer configured to run experiment
	pretrained model: None None
	checkpoint directory: ../checkpoints
	patience: 10
	accumulation steps: 1
	non blocking: True
	retain graph: False
	device: cuda
	model dtype: torch.float32
	parallel: False
[2020-02-05 01:34:47] - slp - INFO -- Trainer will run for
model: HierAttNet(
  (sent_att_net): SentAttNet(
    (gru): GRU(600, 300, batch_first=True, bidirectional=True)
    (sent): Linear(in_features=600, out_features=600, bias=True)
    (context): Linear(in_features=600, out_features=1, bias=False)
    (fc): Linear(in_features=600, out_features=2, bias=True)
    (pack): PackSequence()
    (unpack): PadPackedSequence()
  )
  (word_att_net_text): WordAttNet(
    (gru): GRU(300, 300, batch_first=True, bidirectional=True)
    (word): Linear(in_features=600, out_features=600, bias=True)
    (context): Linear(in_features=600, out_features=1, bias=False)
    (lookup): Embedding(2196024, 300)
    (pack): PackSequence()
    (unpack): PadPackedSequence()
  )
)
optimizer: Adam (
Parameter Group 0
    amsgrad: False
    betas: (0.9, 0.999)
    eps: 1e-08
    lr: 0.0005
    weight_decay: 0
)
loss: CrossEntropyLoss()
[2020-02-05 03:08:49] - slp - INFO -- Trainer configured to run experiment
	pretrained model: None None
	checkpoint directory: ../checkpoints
	patience: 10
	accumulation steps: 1
	non blocking: True
	retain graph: False
	device: cuda
	model dtype: torch.float32
	parallel: False
[2020-02-05 03:08:49] - slp - INFO -- Trainer will run for
model: HierAttNet(
  (sent_att_net): SentAttNet(
    (gru): GRU(600, 300, batch_first=True, bidirectional=True)
    (sent): Linear(in_features=600, out_features=600, bias=True)
    (context): Linear(in_features=600, out_features=1, bias=False)
    (fc): Linear(in_features=600, out_features=2, bias=True)
    (pack): PackSequence()
    (unpack): PadPackedSequence()
  )
  (word_att_net_text): WordAttNet(
    (gru): GRU(300, 300, batch_first=True, bidirectional=True)
    (word): Linear(in_features=600, out_features=600, bias=True)
    (context): Linear(in_features=600, out_features=1, bias=False)
    (lookup): Embedding(2196024, 300)
    (pack): PackSequence()
    (unpack): PadPackedSequence()
  )
)
optimizer: Adam (
Parameter Group 0
    amsgrad: False
    betas: (0.9, 0.999)
    eps: 1e-08
    lr: 0.0005
    weight_decay: 0
)
loss: CrossEntropyLoss()
[2020-02-05 04:22:09] - slp - INFO -- Trainer configured to run experiment
	pretrained model: None None
	checkpoint directory: ../checkpoints
	patience: 10
	accumulation steps: 1
	non blocking: True
	retain graph: False
	device: cuda
	model dtype: torch.float32
	parallel: False
[2020-02-05 04:22:09] - slp - INFO -- Trainer will run for
model: HierAttNet(
  (sent_att_net): SentAttNet(
    (gru): GRU(600, 300, batch_first=True, bidirectional=True)
    (sent): Linear(in_features=600, out_features=600, bias=True)
    (context): Linear(in_features=600, out_features=1, bias=False)
    (fc): Linear(in_features=600, out_features=2, bias=True)
    (pack): PackSequence()
    (unpack): PadPackedSequence()
  )
  (word_att_net_text): WordAttNet(
    (gru): GRU(300, 300, batch_first=True, bidirectional=True)
    (word): Linear(in_features=600, out_features=600, bias=True)
    (context): Linear(in_features=600, out_features=1, bias=False)
    (lookup): Embedding(2196024, 300)
    (pack): PackSequence()
    (unpack): PadPackedSequence()
  )
)
optimizer: Adam (
Parameter Group 0
    amsgrad: False
    betas: (0.9, 0.999)
    eps: 1e-08
    lr: 0.0005
    weight_decay: 0
)
loss: CrossEntropyLoss()
[2020-02-05 06:11:44] - slp - INFO -- Trainer configured to run experiment
	pretrained model: None None
	checkpoint directory: ../checkpoints
	patience: 10
	accumulation steps: 1
	non blocking: True
	retain graph: False
	device: cuda
	model dtype: torch.float32
	parallel: False
[2020-02-05 06:11:44] - slp - INFO -- Trainer will run for
model: HierAttNet(
  (sent_att_net): SentAttNet(
    (gru): GRU(600, 300, batch_first=True, bidirectional=True)
    (sent): Linear(in_features=600, out_features=600, bias=True)
    (context): Linear(in_features=600, out_features=1, bias=False)
    (fc): Linear(in_features=600, out_features=2, bias=True)
    (pack): PackSequence()
    (unpack): PadPackedSequence()
  )
  (word_att_net_text): WordAttNet(
    (gru): GRU(300, 300, batch_first=True, bidirectional=True)
    (word): Linear(in_features=600, out_features=600, bias=True)
    (context): Linear(in_features=600, out_features=1, bias=False)
    (lookup): Embedding(2196024, 300)
    (pack): PackSequence()
    (unpack): PadPackedSequence()
  )
)
optimizer: Adam (
Parameter Group 0
    amsgrad: False
    betas: (0.9, 0.999)
    eps: 1e-08
    lr: 0.0005
    weight_decay: 0
)
loss: CrossEntropyLoss()
[2020-02-05 08:15:33] - slp - INFO -- Trainer configured to run experiment
	pretrained model: None None
	checkpoint directory: ../checkpoints
	patience: 10
	accumulation steps: 1
	non blocking: True
	retain graph: False
	device: cuda
	model dtype: torch.float32
	parallel: False
[2020-02-05 08:15:33] - slp - INFO -- Trainer will run for
model: HierAttNet(
  (sent_att_net): SentAttNet(
    (gru): GRU(600, 300, batch_first=True, bidirectional=True)
    (sent): Linear(in_features=600, out_features=600, bias=True)
    (context): Linear(in_features=600, out_features=1, bias=False)
    (fc): Linear(in_features=600, out_features=2, bias=True)
    (pack): PackSequence()
    (unpack): PadPackedSequence()
  )
  (word_att_net_text): WordAttNet(
    (gru): GRU(300, 300, batch_first=True, bidirectional=True)
    (word): Linear(in_features=600, out_features=600, bias=True)
    (context): Linear(in_features=600, out_features=1, bias=False)
    (lookup): Embedding(2196024, 300)
    (pack): PackSequence()
    (unpack): PadPackedSequence()
  )
)
optimizer: Adam (
Parameter Group 0
    amsgrad: False
    betas: (0.9, 0.999)
    eps: 1e-08
    lr: 0.0005
    weight_decay: 0
)
loss: CrossEntropyLoss()
[2020-02-05 23:26:42] - slp - INFO -- PyTorch version 1.2.0 available.
[2020-02-05 23:26:42] - slp - INFO -- Better speed can be achieved with apex installed from https://www.github.com/nvidia/apex .
…
[2020-02-06 00:06:38] - slp - INFO -- BENCHMARK: load(*(<slp.util.embeddings.EmbeddingsLoader object at 0x7f25bf3561d0>,), **{}) took: 14.752898454666138 sec
[2020-02-06 00:07:00] - slp - INFO -- Trainer configured to run experiment
	pretrained model: None None
	checkpoint directory: ../checkpoints
	patience: 10
	accumulation steps: 1
	non blocking: True
	retain graph: False
	device: cuda
	model dtype: torch.float32
	parallel: False
[2020-02-06 00:07:00] - slp - INFO -- Trainer will run for
model: HierAttNet(
  (sent_att_net): SentAttNet(
    (gru): GRU(600, 300, batch_first=True, bidirectional=True)
    (sent): Linear(in_features=600, out_features=600, bias=True)
    (context): Linear(in_features=600, out_features=1, bias=False)
    (fc): Linear(in_features=600, out_features=2, bias=True)
    (pack): PackSequence()
    (unpack): PadPackedSequence()
  )
  (word_att_net_text): WordAttNet(
    (gru): GRU(300, 300, batch_first=True, bidirectional=True)
    (word): Linear(in_features=600, out_features=600, bias=True)
    (context): Linear(in_features=600, out_features=1, bias=False)
    (lookup): Embedding(2196024, 300)
    (pack): PackSequence()
    (unpack): PadPackedSequence()
  )
)
optimizer: Adam (
Parameter Group 0
    amsgrad: False
    betas: (0.9, 0.999)
    eps: 1e-08
    lr: 0.0005
    weight_decay: 0
)
loss: CrossEntropyLoss()
[2020-02-06 01:04:39] - slp - INFO -- Trainer configured to run experiment
	pretrained model: None None
	checkpoint directory: ../checkpoints
	patience: 10
	accumulation steps: 1
	non blocking: True
	retain graph: False
	device: cuda
	model dtype: torch.float32
	parallel: False
[2020-02-06 01:04:39] - slp - INFO -- Trainer will run for
model: HierAttNet(
  (sent_att_net): SentAttNet(
    (gru): GRU(600, 300, batch_first=True, bidirectional=True)
    (sent): Linear(in_features=600, out_features=600, bias=True)
    (context): Linear(in_features=600, out_features=1, bias=False)
    (fc): Linear(in_features=600, out_features=2, bias=True)
    (pack): PackSequence()
    (unpack): PadPackedSequence()
  )
  (word_att_net_text): WordAttNet(
    (gru): GRU(300, 300, batch_first=True, bidirectional=True)
    (word): Linear(in_features=600, out_features=600, bias=True)
    (context): Linear(in_features=600, out_features=1, bias=False)
    (lookup): Embedding(2196024, 300)
    (pack): PackSequence()
    (unpack): PadPackedSequence()
  )
)
optimizer: Adam (
Parameter Group 0
    amsgrad: False
    betas: (0.9, 0.999)
    eps: 1e-08
    lr: 0.0005
    weight_decay: 0
)
loss: CrossEntropyLoss()
[2020-02-06 01:49:10] - slp - INFO -- Trainer configured to run experiment
	pretrained model: None None
	checkpoint directory: ../checkpoints
	patience: 10
	accumulation steps: 1
	non blocking: True
	retain graph: False
	device: cuda
	model dtype: torch.float32
	parallel: False
[2020-02-06 01:49:10] - slp - INFO -- Trainer will run for
model: HierAttNet(
  (sent_att_net): SentAttNet(
    (gru): GRU(600, 300, batch_first=True, bidirectional=True)
    (sent): Linear(in_features=600, out_features=600, bias=True)
    (context): Linear(in_features=600, out_features=1, bias=False)
    (fc): Linear(in_features=600, out_features=2, bias=True)
    (pack): PackSequence()
    (unpack): PadPackedSequence()
  )
  (word_att_net_text): WordAttNet(
    (gru): GRU(300, 300, batch_first=True, bidirectional=True)
    (word): Linear(in_features=600, out_features=600, bias=True)
    (context): Linear(in_features=600, out_features=1, bias=False)
    (lookup): Embedding(2196024, 300)
    (pack): PackSequence()
    (unpack): PadPackedSequence()
  )
)
optimizer: Adam (
Parameter Group 0
    amsgrad: False
    betas: (0.9, 0.999)
    eps: 1e-08
    lr: 0.0005
    weight_decay: 0
)
loss: CrossEntropyLoss()
[2020-02-06 02:16:41] - slp - INFO -- PyTorch version 1.2.0 available.
[2020-02-06 02:16:41] - slp - INFO -- Better speed can be achieved with apex installed from https://www.github.com/nvidia/apex .
…
[2020-02-06 02:18:02] - slp - INFO -- BENCHMARK: load(*(<slp.util.embeddings.EmbeddingsLoader object at 0x7f17bb832240>,), **{}) took: 27.02204728126526 sec
[2020-02-06 02:18:29] - slp - INFO -- Trainer configured to run experiment
	pretrained model: None None
	checkpoint directory: ../checkpoints
	patience: 10
	accumulation steps: 1
	non blocking: True
	retain graph: False
	device: cuda
	model dtype: torch.float32
	parallel: False
[2020-02-06 02:18:29] - slp - INFO -- Trainer will run for
model: HierAttNet(
  (sent_att_net): SentAttNet(
    (gru): GRU(712, 300, batch_first=True, bidirectional=True)
    (sent): Linear(in_features=600, out_features=600, bias=True)
    (context): Linear(in_features=600, out_features=1, bias=False)
    (fc): Linear(in_features=600, out_features=2, bias=True)
    (pack): PackSequence()
    (unpack): PadPackedSequence()
  )
  (word_att_net_text): WordAttNet(
    (gru): GRU(300, 300, batch_first=True, bidirectional=True)
    (word): Linear(in_features=712, out_features=712, bias=True)
    (context): Linear(in_features=712, out_features=1, bias=False)
    (lookup): Embedding(2196024, 300)
    (pack): PackSequence()
    (unpack): PadPackedSequence()
    (lexicons): LexiconFeatures()
  )
)
optimizer: Adam (
Parameter Group 0
    amsgrad: False
    betas: (0.9, 0.999)
    eps: 1e-08
    lr: 0.0005
    weight_decay: 0
)
loss: CrossEntropyLoss()
[2020-02-06 02:20:09] - slp - ERROR -- Current run is terminating due to exception: .
[2020-02-06 02:20:09] - slp - ERROR -- Engine run is terminating due to exception: .
…
[2020-02-06 02:20:52] - slp - INFO -- BENCHMARK: load(*(<slp.util.embeddings.EmbeddingsLoader object at 0x7feff2612240>,), **{}) took: 15.61784553527832 sec
[2020-02-06 02:21:13] - slp - INFO -- Trainer configured to run experiment
	pretrained model: None None
	checkpoint directory: ../checkpoints
	patience: 10
	accumulation steps: 1
	non blocking: True
	retain graph: False
	device: cuda
	model dtype: torch.float32
	parallel: False
[2020-02-06 02:21:13] - slp - INFO -- Trainer will run for
model: HierAttNet(
  (sent_att_net): SentAttNet(
    (gru): GRU(712, 300, batch_first=True, bidirectional=True)
    (sent): Linear(in_features=600, out_features=600, bias=True)
    (context): Linear(in_features=600, out_features=1, bias=False)
    (fc): Linear(in_features=600, out_features=2, bias=True)
    (pack): PackSequence()
    (unpack): PadPackedSequence()
  )
  (word_att_net_text): WordAttNet(
    (gru): GRU(300, 300, batch_first=True, bidirectional=True)
    (word): Linear(in_features=712, out_features=712, bias=True)
    (context): Linear(in_features=712, out_features=1, bias=False)
    (lookup): Embedding(2196024, 300)
    (pack): PackSequence()
    (unpack): PadPackedSequence()
    (lexicons): LexiconFeatures()
  )
)
optimizer: Adam (
Parameter Group 0
    amsgrad: False
    betas: (0.9, 0.999)
    eps: 1e-08
    lr: 0.0005
    weight_decay: 0
)
loss: CrossEntropyLoss()
[2020-02-06 02:29:32] - slp - INFO -- Trainer configured to run experiment
	pretrained model: None None
	checkpoint directory: ../checkpoints
	patience: 10
	accumulation steps: 1
	non blocking: True
	retain graph: False
	device: cuda
	model dtype: torch.float32
	parallel: False
[2020-02-06 02:29:32] - slp - INFO -- Trainer will run for
model: HierAttNet(
  (sent_att_net): SentAttNet(
    (gru): GRU(600, 300, batch_first=True, bidirectional=True)
    (sent): Linear(in_features=600, out_features=600, bias=True)
    (context): Linear(in_features=600, out_features=1, bias=False)
    (fc): Linear(in_features=600, out_features=2, bias=True)
    (pack): PackSequence()
    (unpack): PadPackedSequence()
  )
  (word_att_net_text): WordAttNet(
    (gru): GRU(300, 300, batch_first=True, bidirectional=True)
    (word): Linear(in_features=600, out_features=600, bias=True)
    (context): Linear(in_features=600, out_features=1, bias=False)
    (lookup): Embedding(2196024, 300)
    (pack): PackSequence()
    (unpack): PadPackedSequence()
  )
)
optimizer: Adam (
Parameter Group 0
    amsgrad: False
    betas: (0.9, 0.999)
    eps: 1e-08
    lr: 0.0005
    weight_decay: 0
)
loss: CrossEntropyLoss()
[2020-02-06 02:41:21] - slp - ERROR -- Current run is terminating due to exception: .
[2020-02-06 02:41:21] - slp - ERROR -- Engine run is terminating due to exception: .
…
[2020-02-06 02:44:16] - slp - INFO -- BENCHMARK: load(*(<slp.util.embeddings.EmbeddingsLoader object at 0x7f7eb73fc240>,), **{}) took: 24.711315870285034 sec
[2020-02-06 02:44:36] - slp - INFO -- Trainer configured to run experiment
	pretrained model: None None
	checkpoint directory: ../checkpoints
	patience: 10
	accumulation steps: 1
	non blocking: True
	retain graph: False
	device: cuda
	model dtype: torch.float32
	parallel: False
[2020-02-06 02:44:36] - slp - INFO -- Trainer will run for
model: HierAttNet(
  (sent_att_net): SentAttNet(
    (gru): GRU(712, 300, batch_first=True, bidirectional=True)
    (sent): Linear(in_features=600, out_features=600, bias=True)
    (context): Linear(in_features=600, out_features=1, bias=False)
    (fc): Linear(in_features=600, out_features=2, bias=True)
    (pack): PackSequence()
    (unpack): PadPackedSequence()
  )
  (word_att_net_text): WordAttNet(
    (gru): GRU(300, 300, batch_first=True, bidirectional=True)
    (word): Linear(in_features=712, out_features=712, bias=True)
    (context): Linear(in_features=712, out_features=1, bias=False)
    (lookup): Embedding(2196024, 300)
    (pack): PackSequence()
    (unpack): PadPackedSequence()
    (lexicons): LexiconFeatures()
  )
)
optimizer: Adam (
Parameter Group 0
    amsgrad: False
    betas: (0.9, 0.999)
    eps: 1e-08
    lr: 0.0005
    weight_decay: 0
)
loss: CrossEntropyLoss()
[2020-02-06 04:21:46] - slp - INFO -- Trainer configured to run experiment
	pretrained model: None None
	checkpoint directory: ../checkpoints
	patience: 10
	accumulation steps: 1
	non blocking: True
	retain graph: False
	device: cuda
	model dtype: torch.float32
	parallel: False
[2020-02-06 04:21:46] - slp - INFO -- Trainer will run for
model: HierAttNet(
  (sent_att_net): SentAttNet(
    (gru): GRU(600, 300, batch_first=True, bidirectional=True)
    (sent): Linear(in_features=600, out_features=600, bias=True)
    (context): Linear(in_features=600, out_features=1, bias=False)
    (fc): Linear(in_features=600, out_features=2, bias=True)
    (pack): PackSequence()
    (unpack): PadPackedSequence()
  )
  (word_att_net_text): WordAttNet(
    (gru): GRU(300, 300, batch_first=True, bidirectional=True)
    (word): Linear(in_features=600, out_features=600, bias=True)
    (context): Linear(in_features=600, out_features=1, bias=False)
    (lookup): Embedding(2196024, 300)
    (pack): PackSequence()
    (unpack): PadPackedSequence()
  )
)
optimizer: Adam (
Parameter Group 0
    amsgrad: False
    betas: (0.9, 0.999)
    eps: 1e-08
    lr: 0.0005
    weight_decay: 0
)
loss: CrossEntropyLoss()
[2020-02-06 06:22:58] - slp - INFO -- Trainer configured to run experiment
	pretrained model: None None
	checkpoint directory: ../checkpoints
	patience: 10
	accumulation steps: 1
	non blocking: True
	retain graph: False
	device: cuda
	model dtype: torch.float32
	parallel: False
[2020-02-06 06:22:58] - slp - INFO -- Trainer will run for
model: HierAttNet(
  (sent_att_net): SentAttNet(
    (gru): GRU(712, 300, batch_first=True, bidirectional=True)
    (sent): Linear(in_features=600, out_features=600, bias=True)
    (context): Linear(in_features=600, out_features=1, bias=False)
    (fc): Linear(in_features=600, out_features=2, bias=True)
    (pack): PackSequence()
    (unpack): PadPackedSequence()
  )
  (word_att_net_text): WordAttNet(
    (gru): GRU(300, 300, batch_first=True, bidirectional=True)
    (word): Linear(in_features=712, out_features=712, bias=True)
    (context): Linear(in_features=712, out_features=1, bias=False)
    (lookup): Embedding(2196024, 300)
    (pack): PackSequence()
    (unpack): PadPackedSequence()
    (lexicons): LexiconFeatures()
  )
)
optimizer: Adam (
Parameter Group 0
    amsgrad: False
    betas: (0.9, 0.999)
    eps: 1e-08
    lr: 0.0005
    weight_decay: 0
)
loss: CrossEntropyLoss()
[2020-02-06 11:10:22] - slp - INFO -- Trainer configured to run experiment
	pretrained model: None None
	checkpoint directory: ../checkpoints
	patience: 10
	accumulation steps: 1
	non blocking: True
	retain graph: False
	device: cuda
	model dtype: torch.float32
	parallel: False
[2020-02-06 11:10:22] - slp - INFO -- Trainer will run for
model: HierAttNet(
  (sent_att_net): SentAttNet(
    (gru): GRU(712, 300, batch_first=True, bidirectional=True)
    (sent): Linear(in_features=600, out_features=600, bias=True)
    (context): Linear(in_features=600, out_features=1, bias=False)
    (fc): Linear(in_features=600, out_features=2, bias=True)
    (pack): PackSequence()
    (unpack): PadPackedSequence()
  )
  (word_att_net_text): WordAttNet(
    (gru): GRU(300, 300, batch_first=True, bidirectional=True)
    (word): Linear(in_features=712, out_features=712, bias=True)
    (context): Linear(in_features=712, out_features=1, bias=False)
    (lookup): Embedding(2196024, 300)
    (pack): PackSequence()
    (unpack): PadPackedSequence()
    (lexicons): LexiconFeatures()
  )
)
optimizer: Adam (
Parameter Group 0
    amsgrad: False
    betas: (0.9, 0.999)
    eps: 1e-08
    lr: 0.0005
    weight_decay: 0
)
loss: CrossEntropyLoss()
[2020-02-06 12:24:41] - slp - INFO -- PyTorch version 1.2.0 available.
[2020-02-06 12:24:41] - slp - INFO -- Better speed can be achieved with apex installed from https://www.github.com/nvidia/apex .
…
[2020-02-06 12:26:44] - slp - INFO -- BENCHMARK: load(*(<slp.util.embeddings.EmbeddingsLoader object at 0x7fc882fd4278>,), **{}) took: 32.7521538734436 sec
[2020-02-06 12:27:14] - slp - INFO -- Trainer configured to run experiment
	pretrained model: None None
	checkpoint directory: ../checkpoints
	patience: 10
	accumulation steps: 1
	non blocking: True
	retain graph: False
	device: cuda
	model dtype: torch.float32
	parallel: False
[2020-02-06 12:27:14] - slp - INFO -- Trainer will run for
model: HierAttNet(
  (sent_att_net): SentAttNet(
    (gru): GRU(712, 300, batch_first=True, bidirectional=True)
    (sent): Linear(in_features=600, out_features=600, bias=True)
    (context): Linear(in_features=600, out_features=1, bias=False)
    (fc): Linear(in_features=600, out_features=2, bias=True)
    (pack): PackSequence()
    (unpack): PadPackedSequence()
  )
  (word_att_net_text): WordAttNet(
    (gru): GRU(300, 300, batch_first=True, bidirectional=True)
    (word): Linear(in_features=712, out_features=712, bias=True)
    (context): Linear(in_features=712, out_features=1, bias=False)
    (lookup): Embedding(2196024, 300)
    (pack): PackSequence()
    (unpack): PadPackedSequence()
    (lexicons): LexiconFeatures()
    (gate): Linear(in_features=112, out_features=600, bias=True)
    (sigmoid): Sigmoid()
  )
)
optimizer: Adam (
Parameter Group 0
    amsgrad: False
    betas: (0.9, 0.999)
    eps: 1e-08
    lr: 0.0005
    weight_decay: 0
)
loss: CrossEntropyLoss()
[2020-02-06 12:28:35] - slp - ERROR -- Current run is terminating due to exception: size mismatch, m1: [1200 x 600], m2: [712 x 712] at /pytorch/aten/src/THC/generic/THCTensorMathBlas.cu:273.
…
[2020-02-06 12:33:42] - slp - INFO -- BENCHMARK: load(*(<slp.util.embeddings.EmbeddingsLoader object at 0x7fd2c1ef1240>,), **{}) took: 27.980815887451172 sec
[2020-02-06 12:34:09] - slp - INFO -- Trainer configured to run experiment
	pretrained model: None None
	checkpoint directory: ../checkpoints
	patience: 10
	accumulation steps: 1
	non blocking: True
	retain graph: False
	device: cuda
	model dtype: torch.float32
	parallel: False
[2020-02-06 12:34:09] - slp - INFO -- Trainer will run for
model: HierAttNet(
  (sent_att_net): SentAttNet(
    (gru): GRU(712, 300, batch_first=True, bidirectional=True)
    (sent): Linear(in_features=600, out_features=600, bias=True)
    (context): Linear(in_features=600, out_features=1, bias=False)
    (fc): Linear(in_features=600, out_features=2, bias=True)
    (pack): PackSequence()
    (unpack): PadPackedSequence()
  )
  (word_att_net_text): WordAttNet(
    (gru): GRU(300, 300, batch_first=True, bidirectional=True)
    (word): Linear(in_features=600, out_features=600, bias=True)
    (context): Linear(in_features=600, out_features=1, bias=False)
    (lookup): Embedding(2196024, 300)
    (pack): PackSequence()
    (unpack): PadPackedSequence()
    (lexicons): LexiconFeatures()
    (gate): Linear(in_features=112, out_features=600, bias=True)
    (sigmoid): Sigmoid()
  )
)
optimizer: Adam (
Parameter Group 0
    amsgrad: False
    betas: (0.9, 0.999)
    eps: 1e-08
    lr: 0.0005
    weight_decay: 0
)
loss: CrossEntropyLoss()
[2020-02-06 12:35:29] - slp - ERROR -- Current run is terminating due to exception: .
[2020-02-06 12:35:29] - slp - ERROR -- Engine run is terminating due to exception: .
…
[2020-02-06 12:47:03] - slp - INFO -- BENCHMARK: load(*(<slp.util.embeddings.EmbeddingsLoader object at 0x7fc503970278>,), **{}) took: 25.15025544166565 sec
[2020-02-06 12:47:31] - slp - INFO -- Trainer configured to run experiment
	pretrained model: None None
	checkpoint directory: ../checkpoints
	patience: 10
	accumulation steps: 1
	non blocking: True
	retain graph: False
	device: cuda
	model dtype: torch.float32
	parallel: False
[2020-02-06 12:47:31] - slp - INFO -- Trainer will run for
model: HierAttNet(
  (sent_att_net): SentAttNet(
    (gru): GRU(600, 300, batch_first=True, bidirectional=True)
    (sent): Linear(in_features=600, out_features=600, bias=True)
    (context): Linear(in_features=600, out_features=1, bias=False)
    (fc): Linear(in_features=600, out_features=2, bias=True)
    (pack): PackSequence()
    (unpack): PadPackedSequence()
  )
  (word_att_net_text): WordAttNet(
    (gru): GRU(300, 300, batch_first=True, bidirectional=True)
    (word): Linear(in_features=600, out_features=600, bias=True)
    (context): Linear(in_features=600, out_features=1, bias=False)
    (lookup): Embedding(2196024, 300)
    (pack): PackSequence()
    (unpack): PadPackedSequence()
    (lexicons): LexiconFeatures()
    (gate): Linear(in_features=112, out_features=600, bias=True)
    (sigmoid): Sigmoid()
  )
)
optimizer: Adam (
Parameter Group 0
    amsgrad: False
    betas: (0.9, 0.999)
    eps: 1e-08
    lr: 0.0005
    weight_decay: 0
)
loss: CrossEntropyLoss()
[2020-02-06 14:34:35] - slp - ERROR -- Current run is terminating due to exception: .
[2020-02-06 14:34:35] - slp - WARNING -- CTRL-C caught. Exiting gracefully...
[2020-02-06 14:35:00] - slp - INFO -- Trainer configured to run experiment
	pretrained model: None None
	checkpoint directory: ../checkpoints
	patience: 10
	accumulation steps: 1
	non blocking: True
	retain graph: False
	device: cuda
	model dtype: torch.float32
	parallel: False
[2020-02-06 14:35:00] - slp - INFO -- Trainer will run for
model: HierAttNet(
  (sent_att_net): SentAttNet(
    (gru): GRU(712, 300, batch_first=True, bidirectional=True)
    (sent): Linear(in_features=600, out_features=600, bias=True)
    (context): Linear(in_features=600, out_features=1, bias=False)
    (fc): Linear(in_features=600, out_features=2, bias=True)
    (pack): PackSequence()
    (unpack): PadPackedSequence()
  )
  (word_att_net_text): WordAttNet(
    (gru): GRU(300, 300, batch_first=True, bidirectional=True)
    (word): Linear(in_features=712, out_features=712, bias=True)
    (context): Linear(in_features=712, out_features=1, bias=False)
    (lookup): Embedding(2196024, 300)
    (pack): PackSequence()
    (unpack): PadPackedSequence()
    (lexicons): LexiconFeatures()
  )
)
optimizer: Adam (
Parameter Group 0
    amsgrad: False
    betas: (0.9, 0.999)
    eps: 1e-08
    lr: 0.0005
    weight_decay: 0
)
loss: CrossEntropyLoss()
[2020-02-06 16:41:11] - slp - INFO -- PyTorch version 1.2.0 available.
[2020-02-06 16:41:12] - slp - INFO -- Better speed can be achieved with apex installed from https://www.github.com/nvidia/apex .
…
[2020-03-07 00:32:20] - slp - INFO -- BENCHMARK: load(*(<slp.util.embeddings.EmbeddingsLoader object at 0x7fb559beea20>,), **{}) took: 10.491369247436523 sec
[2020-03-07 00:32:37] - slp - INFO -- Trainer configured to run experiment
	pretrained model: None None
	checkpoint directory: ../checkpoints
	patience: 10
	accumulation steps: 1
	non blocking: True
	retain graph: False
	device: cuda
	model dtype: torch.float32
	parallel: False
[2020-03-07 00:32:37] - slp - INFO -- Trainer will run for
model: HierAttNet(
  (sent_att_net): SentAttNet(
    (gru): GRU(600, 300, batch_first=True, bidirectional=True)
    (sent): Linear(in_features=600, out_features=600, bias=True)
    (context): Linear(in_features=600, out_features=1, bias=False)
    (fc): Linear(in_features=600, out_features=2, bias=True)
    (pack): PackSequence()
    (unpack): PadPackedSequence()
  )
  (word_att_net_text): WordAttNet(
    (gru): GRU(300, 300, batch_first=True, bidirectional=True)
    (word): Linear(in_features=600, out_features=600, bias=True)
    (context): Linear(in_features=600, out_features=1, bias=False)
    (lookup): Embedding(2196024, 300)
    (pack): PackSequence()
    (unpack): PadPackedSequence()
  )
)
optimizer: Adam (
Parameter Group 0
    amsgrad: False
    betas: (0.9, 0.999)
    eps: 1e-08
    lr: 0.0005
    weight_decay: 0
)
loss: CrossEntropyLoss()
[2020-03-07 00:46:10] - slp - ERROR -- Current run is terminating due to exception: .
[2020-03-07 00:46:10] - slp - WARNING -- CTRL-C caught. Exiting gracefully...
[2020-03-07 00:46:21] - slp - INFO -- Trainer configured to run experiment
	pretrained model: None None
	checkpoint directory: ../checkpoints
	patience: 10
	accumulation steps: 1
	non blocking: True
	retain graph: False
	device: cuda
	model dtype: torch.float32
	parallel: False
[2020-03-07 00:46:21] - slp - INFO -- Trainer will run for
model: HierAttNet(
  (sent_att_net): SentAttNet(
    (gru): GRU(600, 300, batch_first=True, bidirectional=True)
    (sent): Linear(in_features=600, out_features=600, bias=True)
    (context): Linear(in_features=600, out_features=1, bias=False)
    (fc): Linear(in_features=600, out_features=2, bias=True)
    (pack): PackSequence()
    (unpack): PadPackedSequence()
  )
  (word_att_net_text): WordAttNet(
    (gru): GRU(300, 300, batch_first=True, bidirectional=True)
    (word): Linear(in_features=600, out_features=600, bias=True)
    (context): Linear(in_features=600, out_features=1, bias=False)
    (lookup): Embedding(2196024, 300)
    (pack): PackSequence()
    (unpack): PadPackedSequence()
  )
)
optimizer: Adam (
Parameter Group 0
    amsgrad: False
    betas: (0.9, 0.999)
    eps: 1e-08
    lr: 0.0005
    weight_decay: 0
)
loss: CrossEntropyLoss()
[2020-03-07 00:46:25] - slp - ERROR -- Current run is terminating due to exception: .
[2020-03-07 00:46:25] - slp - WARNING -- CTRL-C caught. Exiting gracefully...
…
[2020-03-12 02:53:47] - slp - INFO -- BENCHMARK: load(*(<slp.util.embeddings.EmbeddingsLoader object at 0x7ff5ef0762b0>,), **{}) took: 87.75531792640686 sec
[2020-03-12 02:55:49] - slp - INFO -- Trainer configured to run experiment
	pretrained model: None None
	checkpoint directory: ../checkpoints
	patience: 10
	accumulation steps: 1
	non blocking: True
	retain graph: False
	device: cuda
	model dtype: torch.float32
	parallel: False
[2020-03-12 02:55:49] - slp - INFO -- Trainer will run for
model: HierAttNet(
  (sent_att_net): SentAttNet(
    (gru): GRU(600, 300, batch_first=True, bidirectional=True)
    (sent): Linear(in_features=600, out_features=600, bias=True)
    (context): Linear(in_features=600, out_features=1, bias=False)
    (fc): Linear(in_features=600, out_features=2, bias=True)
    (pack): PackSequence()
    (unpack): PadPackedSequence()
  )
  (word_att_net_text): WordAttNet(
    (gru): GRU(300, 300, batch_first=True, bidirectional=True)
    (word): Linear(in_features=600, out_features=600, bias=True)
    (context): Linear(in_features=600, out_features=1, bias=False)
    (lookup): Embedding(2196024, 300)
    (pack): PackSequence()
    (unpack): PadPackedSequence()
  )
)
optimizer: Adam (
Parameter Group 0
    amsgrad: False
    betas: (0.9, 0.999)
    eps: 1e-08
    lr: 0.0005
    weight_decay: 0
)
loss: CrossEntropyLoss()
[2020-03-12 03:00:08] - slp - INFO -- Trainer configured to run experiment
	pretrained model: None None
	checkpoint directory: ../checkpoints
	patience: 10
	accumulation steps: 1
	non blocking: True
	retain graph: False
	device: cuda
	model dtype: torch.float32
	parallel: False
[2020-03-12 03:00:08] - slp - INFO -- Trainer will run for
model: HierAttNet(
  (sent_att_net): SentAttNet(
    (gru): GRU(600, 300, batch_first=True, bidirectional=True)
    (sent): Linear(in_features=600, out_features=600, bias=True)
    (context): Linear(in_features=600, out_features=1, bias=False)
    (fc): Linear(in_features=600, out_features=2, bias=True)
    (pack): PackSequence()
    (unpack): PadPackedSequence()
  )
  (word_att_net_text): WordAttNet(
    (gru): GRU(300, 300, batch_first=True, bidirectional=True)
    (word): Linear(in_features=600, out_features=600, bias=True)
    (context): Linear(in_features=600, out_features=1, bias=False)
    (lookup): Embedding(2196024, 300)
    (pack): PackSequence()
    (unpack): PadPackedSequence()
  )
)
optimizer: Adam (
Parameter Group 0
    amsgrad: False
    betas: (0.9, 0.999)
    eps: 1e-08
    lr: 0.0005
    weight_decay: 0
)
loss: CrossEntropyLoss()
[2020-03-12 04:37:56] - slp - INFO -- Trainer configured to run experiment
	pretrained model: None None
	checkpoint directory: ../checkpoints
	patience: 10
	accumulation steps: 1
	non blocking: True
	retain graph: False
	device: cuda
	model dtype: torch.float32
	parallel: False
[2020-03-12 04:37:56] - slp - INFO -- Trainer will run for
model: HierAttNet(
  (sent_att_net): SentAttNet(
    (gru): GRU(600, 300, batch_first=True, bidirectional=True)
    (sent): Linear(in_features=600, out_features=600, bias=True)
    (context): Linear(in_features=600, out_features=1, bias=False)
    (fc): Linear(in_features=600, out_features=2, bias=True)
    (pack): PackSequence()
    (unpack): PadPackedSequence()
  )
  (word_att_net_text): WordAttNet(
    (gru): GRU(300, 300, batch_first=True, bidirectional=True)
    (word): Linear(in_features=600, out_features=600, bias=True)
    (context): Linear(in_features=600, out_features=1, bias=False)
    (lookup): Embedding(2196024, 300)
    (pack): PackSequence()
    (unpack): PadPackedSequence()
  )
)
optimizer: Adam (
Parameter Group 0
    amsgrad: False
    betas: (0.9, 0.999)
    eps: 1e-08
    lr: 0.0005
    weight_decay: 0
)
loss: CrossEntropyLoss()
[2020-03-12 04:40:55] - slp - INFO -- Trainer configured to run experiment
	pretrained model: None None
	checkpoint directory: ../checkpoints
	patience: 10
	accumulation steps: 1
	non blocking: True
	retain graph: False
	device: cuda
	model dtype: torch.float32
	parallel: False
[2020-03-12 04:40:55] - slp - INFO -- Trainer will run for
model: HierAttNet(
  (sent_att_net): SentAttNet(
    (gru): GRU(600, 300, batch_first=True, bidirectional=True)
    (sent): Linear(in_features=600, out_features=600, bias=True)
    (context): Linear(in_features=600, out_features=1, bias=False)
    (fc): Linear(in_features=600, out_features=2, bias=True)
    (pack): PackSequence()
    (unpack): PadPackedSequence()
  )
  (word_att_net_text): WordAttNet(
    (gru): GRU(300, 300, batch_first=True, bidirectional=True)
    (word): Linear(in_features=600, out_features=600, bias=True)
    (context): Linear(in_features=600, out_features=1, bias=False)
    (lookup): Embedding(2196024, 300)
    (pack): PackSequence()
    (unpack): PadPackedSequence()
  )
)
optimizer: Adam (
Parameter Group 0
    amsgrad: False
    betas: (0.9, 0.999)
    eps: 1e-08
    lr: 0.0005
    weight_decay: 0
)
loss: CrossEntropyLoss()
[2020-03-12 05:25:06] - slp - INFO -- Trainer configured to run experiment
	pretrained model: None None
	checkpoint directory: ../checkpoints
	patience: 10
	accumulation steps: 1
	non blocking: True
	retain graph: False
	device: cuda
	model dtype: torch.float32
	parallel: False
[2020-03-12 05:25:06] - slp - INFO -- Trainer will run for
model: HierAttNet(
  (sent_att_net): SentAttNet(
    (gru): GRU(600, 300, batch_first=True, bidirectional=True)
    (sent): Linear(in_features=600, out_features=600, bias=True)
    (context): Linear(in_features=600, out_features=1, bias=False)
    (fc): Linear(in_features=600, out_features=2, bias=True)
    (pack): PackSequence()
    (unpack): PadPackedSequence()
  )
  (word_att_net_text): WordAttNet(
    (gru): GRU(300, 300, batch_first=True, bidirectional=True)
    (word): Linear(in_features=600, out_features=600, bias=True)
    (context): Linear(in_features=600, out_features=1, bias=False)
    (lookup): Embedding(2196024, 300)
    (pack): PackSequence()
    (unpack): PadPackedSequence()
  )
)
optimizer: Adam (
Parameter Group 0
    amsgrad: False
    betas: (0.9, 0.999)
    eps: 1e-08
    lr: 0.0005
    weight_decay: 0
)
loss: CrossEntropyLoss()
[2020-03-12 06:06:30] - slp - INFO -- Trainer configured to run experiment
	pretrained model: None None
	checkpoint directory: ../checkpoints
	patience: 10
	accumulation steps: 1
	non blocking: True
	retain graph: False
	device: cuda
	model dtype: torch.float32
	parallel: False
[2020-03-12 06:06:30] - slp - INFO -- Trainer will run for
model: HierAttNet(
  (sent_att_net): SentAttNet(
    (gru): GRU(600, 300, batch_first=True, bidirectional=True)
    (sent): Linear(in_features=600, out_features=600, bias=True)
    (context): Linear(in_features=600, out_features=1, bias=False)
    (fc): Linear(in_features=600, out_features=2, bias=True)
    (pack): PackSequence()
    (unpack): PadPackedSequence()
  )
  (word_att_net_text): WordAttNet(
    (gru): GRU(300, 300, batch_first=True, bidirectional=True)
    (word): Linear(in_features=600, out_features=600, bias=True)
    (context): Linear(in_features=600, out_features=1, bias=False)
    (lookup): Embedding(2196024, 300)
    (pack): PackSequence()
    (unpack): PadPackedSequence()
  )
)
optimizer: Adam (
Parameter Group 0
    amsgrad: False
    betas: (0.9, 0.999)
    eps: 1e-08
    lr: 0.0005
    weight_decay: 0
)
loss: CrossEntropyLoss()
[2020-03-12 06:20:43] - slp - INFO -- Trainer configured to run experiment
	pretrained model: None None
	checkpoint directory: ../checkpoints
	patience: 10
	accumulation steps: 1
	non blocking: True
	retain graph: False
	device: cuda
	model dtype: torch.float32
	parallel: False
[2020-03-12 06:20:43] - slp - INFO -- Trainer will run for
model: HierAttNet(
  (sent_att_net): SentAttNet(
    (gru): GRU(600, 300, batch_first=True, bidirectional=True)
    (sent): Linear(in_features=600, out_features=600, bias=True)
    (context): Linear(in_features=600, out_features=1, bias=False)
    (fc): Linear(in_features=600, out_features=2, bias=True)
    (pack): PackSequence()
    (unpack): PadPackedSequence()
  )
  (word_att_net_text): WordAttNet(
    (gru): GRU(300, 300, batch_first=True, bidirectional=True)
    (word): Linear(in_features=600, out_features=600, bias=True)
    (context): Linear(in_features=600, out_features=1, bias=False)
    (lookup): Embedding(2196024, 300)
    (pack): PackSequence()
    (unpack): PadPackedSequence()
  )
)
optimizer: Adam (
Parameter Group 0
    amsgrad: False
    betas: (0.9, 0.999)
    eps: 1e-08
    lr: 0.0005
    weight_decay: 0
)
loss: CrossEntropyLoss()
[2020-03-12 07:50:50] - slp - INFO -- Trainer configured to run experiment
	pretrained model: None None
	checkpoint directory: ../checkpoints
	patience: 10
	accumulation steps: 1
	non blocking: True
	retain graph: False
	device: cuda
	model dtype: torch.float32
	parallel: False
[2020-03-12 07:50:50] - slp - INFO -- Trainer will run for
model: HierAttNet(
  (sent_att_net): SentAttNet(
    (gru): GRU(600, 300, batch_first=True, bidirectional=True)
    (sent): Linear(in_features=600, out_features=600, bias=True)
    (context): Linear(in_features=600, out_features=1, bias=False)
    (fc): Linear(in_features=600, out_features=2, bias=True)
    (pack): PackSequence()
    (unpack): PadPackedSequence()
  )
  (word_att_net_text): WordAttNet(
    (gru): GRU(300, 300, batch_first=True, bidirectional=True)
    (word): Linear(in_features=600, out_features=600, bias=True)
    (context): Linear(in_features=600, out_features=1, bias=False)
    (lookup): Embedding(2196024, 300)
    (pack): PackSequence()
    (unpack): PadPackedSequence()
  )
)
optimizer: Adam (
Parameter Group 0
    amsgrad: False
    betas: (0.9, 0.999)
    eps: 1e-08
    lr: 0.0005
    weight_decay: 0
)
loss: CrossEntropyLoss()
[2020-03-12 08:40:59] - slp - INFO -- Trainer configured to run experiment
	pretrained model: None None
	checkpoint directory: ../checkpoints
	patience: 10
	accumulation steps: 1
	non blocking: True
	retain graph: False
	device: cuda
	model dtype: torch.float32
	parallel: False
[2020-03-12 08:40:59] - slp - INFO -- Trainer will run for
model: HierAttNet(
  (sent_att_net): SentAttNet(
    (gru): GRU(600, 300, batch_first=True, bidirectional=True)
    (sent): Linear(in_features=600, out_features=600, bias=True)
    (context): Linear(in_features=600, out_features=1, bias=False)
    (fc): Linear(in_features=600, out_features=2, bias=True)
    (pack): PackSequence()
    (unpack): PadPackedSequence()
  )
  (word_att_net_text): WordAttNet(
    (gru): GRU(300, 300, batch_first=True, bidirectional=True)
    (word): Linear(in_features=600, out_features=600, bias=True)
    (context): Linear(in_features=600, out_features=1, bias=False)
    (lookup): Embedding(2196024, 300)
    (pack): PackSequence()
    (unpack): PadPackedSequence()
  )
)
optimizer: Adam (
Parameter Group 0
    amsgrad: False
    betas: (0.9, 0.999)
    eps: 1e-08
    lr: 0.0005
    weight_decay: 0
)
loss: CrossEntropyLoss()
[2020-03-12 13:08:48] - slp - INFO -- PyTorch version 1.2.0 available.
[2020-03-12 13:08:48] - slp - INFO -- Better speed can be achieved with apex installed from https://www.github.com/nvidia/apex .
…
[2020-03-13 14:16:44] - slp - INFO -- BENCHMARK: load(*(<slp.util.embeddings.EmbeddingsLoader object at 0x7f3d41a042e8>,), **{}) took: 40.163039207458496 sec
[2020-03-13 14:17:38] - slp - INFO -- Trainer configured to run experiment
	pretrained model: None None
	checkpoint directory: ../checkpoints
	patience: 10
	accumulation steps: 1
	non blocking: True
	retain graph: False
	device: cuda
	model dtype: torch.float32
	parallel: False
[2020-03-13 14:17:38] - slp - INFO -- Trainer will run for
model: HierAttNet(
  (sent_att_net): SentAttNet(
    (gru): GRU(600, 300, batch_first=True, bidirectional=True)
    (sent): Linear(in_features=600, out_features=600, bias=True)
    (context): Linear(in_features=600, out_features=1, bias=False)
    (fc): Linear(in_features=603, out_features=2, bias=True)
    (pack): PackSequence()
    (unpack): PadPackedSequence()
  )
  (word_att_net_text): WordAttNet(
    (gru): GRU(300, 300, batch_first=True, bidirectional=True)
    (word): Linear(in_features=600, out_features=600, bias=True)
    (context): Linear(in_features=600, out_features=1, bias=False)
    (lookup): Embedding(2196024, 300)
    (pack): PackSequence()
    (unpack): PadPackedSequence()
  )
)
optimizer: Adam (
Parameter Group 0
    amsgrad: False
    betas: (0.9, 0.999)
    eps: 1e-08
    lr: 0.0005
    weight_decay: 0
)
loss: CrossEntropyLoss()
[2020-03-13 14:21:16] - slp - ERROR -- Current run is terminating due to exception: .
[2020-03-13 14:21:16] - slp - ERROR -- Engine run is terminating due to exception: .
…
[2020-03-13 14:23:38] - slp - INFO -- BENCHMARK: load(*(<slp.util.embeddings.EmbeddingsLoader object at 0x7f10af2c92e8>,), **{}) took: 17.18244242668152 sec
[2020-03-13 14:24:04] - slp - INFO -- Trainer configured to run experiment
	pretrained model: None None
	checkpoint directory: ../checkpoints
	patience: 10
	accumulation steps: 1
	non blocking: True
	retain graph: False
	device: cuda
	model dtype: torch.float32
	parallel: False
[2020-03-13 14:24:04] - slp - INFO -- Trainer will run for
model: HierAttNet(
  (sent_att_net): SentAttNet(
    (gru): GRU(600, 300, batch_first=True, bidirectional=True)
    (sent): Linear(in_features=600, out_features=600, bias=True)
    (context): Linear(in_features=600, out_features=1, bias=False)
    (fc): Linear(in_features=603, out_features=2, bias=True)
    (pack): PackSequence()
    (unpack): PadPackedSequence()
  )
  (word_att_net_text): WordAttNet(
    (gru): GRU(300, 300, batch_first=True, bidirectional=True)
    (word): Linear(in_features=600, out_features=600, bias=True)
    (context): Linear(in_features=600, out_features=1, bias=False)
    (lookup): Embedding(2196024, 300)
    (pack): PackSequence()
    (unpack): PadPackedSequence()
  )
)
optimizer: Adam (
Parameter Group 0
    amsgrad: False
    betas: (0.9, 0.999)
    eps: 1e-08
    lr: 0.0005
    weight_decay: 0
)
loss: CrossEntropyLoss()
[2020-03-13 15:37:44] - slp - INFO -- Trainer configured to run experiment
	pretrained model: None None
	checkpoint directory: ../checkpoints
	patience: 10
	accumulation steps: 1
	non blocking: True
	retain graph: False
	device: cuda
	model dtype: torch.float32
	parallel: False
[2020-03-13 15:37:44] - slp - INFO -- Trainer will run for
model: HierAttNet(
  (sent_att_net): SentAttNet(
    (gru): GRU(600, 300, batch_first=True, bidirectional=True)
    (sent): Linear(in_features=600, out_features=600, bias=True)
    (context): Linear(in_features=600, out_features=1, bias=False)
    (fc): Linear(in_features=603, out_features=2, bias=True)
    (pack): PackSequence()
    (unpack): PadPackedSequence()
  )
  (word_att_net_text): WordAttNet(
    (gru): GRU(300, 300, batch_first=True, bidirectional=True)
    (word): Linear(in_features=600, out_features=600, bias=True)
    (context): Linear(in_features=600, out_features=1, bias=False)
    (lookup): Embedding(2196024, 300)
    (pack): PackSequence()
    (unpack): PadPackedSequence()
  )
)
optimizer: Adam (
Parameter Group 0
    amsgrad: False
    betas: (0.9, 0.999)
    eps: 1e-08
    lr: 0.0005
    weight_decay: 0
)
loss: CrossEntropyLoss()
[2020-03-13 16:31:17] - slp - INFO -- Trainer configured to run experiment
	pretrained model: None None
	checkpoint directory: ../checkpoints
	patience: 10
	accumulation steps: 1
	non blocking: True
	retain graph: False
	device: cuda
	model dtype: torch.float32
	parallel: False
[2020-03-13 16:31:17] - slp - INFO -- Trainer will run for
model: HierAttNet(
  (sent_att_net): SentAttNet(
    (gru): GRU(600, 300, batch_first=True, bidirectional=True)
    (sent): Linear(in_features=600, out_features=600, bias=True)
    (context): Linear(in_features=600, out_features=1, bias=False)
    (fc): Linear(in_features=603, out_features=2, bias=True)
    (pack): PackSequence()
    (unpack): PadPackedSequence()
  )
  (word_att_net_text): WordAttNet(
    (gru): GRU(300, 300, batch_first=True, bidirectional=True)
    (word): Linear(in_features=600, out_features=600, bias=True)
    (context): Linear(in_features=600, out_features=1, bias=False)
    (lookup): Embedding(2196024, 300)
    (pack): PackSequence()
    (unpack): PadPackedSequence()
  )
)
optimizer: Adam (
Parameter Group 0
    amsgrad: False
    betas: (0.9, 0.999)
    eps: 1e-08
    lr: 0.0005
    weight_decay: 0
)
loss: CrossEntropyLoss()
[2020-03-13 18:28:06] - slp - INFO -- Trainer configured to run experiment
	pretrained model: None None
	checkpoint directory: ../checkpoints
	patience: 10
	accumulation steps: 1
	non blocking: True
	retain graph: False
	device: cuda
	model dtype: torch.float32
	parallel: False
[2020-03-13 18:28:06] - slp - INFO -- Trainer will run for
model: HierAttNet(
  (sent_att_net): SentAttNet(
    (gru): GRU(600, 300, batch_first=True, bidirectional=True)
    (sent): Linear(in_features=600, out_features=600, bias=True)
    (context): Linear(in_features=600, out_features=1, bias=False)
    (fc): Linear(in_features=603, out_features=2, bias=True)
    (pack): PackSequence()
    (unpack): PadPackedSequence()
  )
  (word_att_net_text): WordAttNet(
    (gru): GRU(300, 300, batch_first=True, bidirectional=True)
    (word): Linear(in_features=600, out_features=600, bias=True)
    (context): Linear(in_features=600, out_features=1, bias=False)
    (lookup): Embedding(2196024, 300)
    (pack): PackSequence()
    (unpack): PadPackedSequence()
  )
)
optimizer: Adam (
Parameter Group 0
    amsgrad: False
    betas: (0.9, 0.999)
    eps: 1e-08
    lr: 0.0005
    weight_decay: 0
)
loss: CrossEntropyLoss()
[2020-03-13 19:48:24] - slp - INFO -- Trainer configured to run experiment
	pretrained model: None None
	checkpoint directory: ../checkpoints
	patience: 10
	accumulation steps: 1
	non blocking: True
	retain graph: False
	device: cuda
	model dtype: torch.float32
	parallel: False
[2020-03-13 19:48:24] - slp - INFO -- Trainer will run for
model: HierAttNet(
  (sent_att_net): SentAttNet(
    (gru): GRU(600, 300, batch_first=True, bidirectional=True)
    (sent): Linear(in_features=600, out_features=600, bias=True)
    (context): Linear(in_features=600, out_features=1, bias=False)
    (fc): Linear(in_features=603, out_features=2, bias=True)
    (pack): PackSequence()
    (unpack): PadPackedSequence()
  )
  (word_att_net_text): WordAttNet(
    (gru): GRU(300, 300, batch_first=True, bidirectional=True)
    (word): Linear(in_features=600, out_features=600, bias=True)
    (context): Linear(in_features=600, out_features=1, bias=False)
    (lookup): Embedding(2196024, 300)
    (pack): PackSequence()
    (unpack): PadPackedSequence()
  )
)
optimizer: Adam (
Parameter Group 0
    amsgrad: False
    betas: (0.9, 0.999)
    eps: 1e-08
    lr: 0.0005
    weight_decay: 0
)
loss: CrossEntropyLoss()
[2020-03-17 23:55:17] - slp - INFO -- PyTorch version 1.2.0 available.
[2020-03-17 23:55:17] - slp - INFO -- Better speed can be achieved with apex installed from https://www.github.com/nvidia/apex .
…
[2020-04-03 00:47:16] - slp - INFO -- BENCHMARK: load(*(<slp.util.embeddings.EmbeddingsLoader object at 0x7f4c6e7ec048>,), **{}) took: 5.56566596031189 sec
[2020-04-03 00:49:07] - slp - INFO -- Trainer configured to run experiment
	pretrained model: None None
	checkpoint directory: ../checkpoints
	patience: 10
	accumulation steps: 1
	non blocking: True
	retain graph: False
	device: cuda
	model dtype: torch.float32
	parallel: False
[2020-04-03 00:49:07] - slp - INFO -- Trainer will run for
model: HierAttNet(
  (sent_att_net): SentAttNet(
    (gru): GRU(600, 300, batch_first=True, bidirectional=True)
    (sent): Linear(in_features=600, out_features=600, bias=True)
    (context): Linear(in_features=600, out_features=1, bias=False)
    (fc): Linear(in_features=600, out_features=2, bias=True)
    (pack): PackSequence()
    (unpack): PadPackedSequence()
  )
  (word_att_net_text): WordAttNet(
    (gru): GRU(300, 300, batch_first=True, bidirectional=True)
    (attention): LuongAttention(
      (W): Linear(in_features=10, out_features=10, bias=False)
    )
    (lookup): Embedding(2196024, 300)
    (pack): PackSequence()
    (unpack): PadPackedSequence()
  )
)
optimizer: Adam (
Parameter Group 0
    amsgrad: False
    betas: (0.9, 0.999)
    eps: 1e-08
    lr: 0.0005
    weight_decay: 0
)
loss: CrossEntropyLoss()
[2020-04-03 00:52:10] - slp - ERROR -- Current run is terminating due to exception: .
[2020-04-03 00:52:10] - slp - ERROR -- Engine run is terminating due to exception: .
…
[2020-04-03 01:02:20] - slp - INFO -- BENCHMARK: load(*(<slp.util.embeddings.EmbeddingsLoader object at 0x7f2dee161c88>,), **{}) took: 10.964056968688965 sec
[2020-04-03 01:06:14] - slp - INFO -- Trainer configured to run experiment
	pretrained model: None None
	checkpoint directory: ../checkpoints
	patience: 10
	accumulation steps: 1
	non blocking: True
	retain graph: False
	device: cuda
	model dtype: torch.float32
	parallel: False
[2020-04-03 01:06:14] - slp - INFO -- Trainer will run for
model: HierAttNet(
  (sent_att_net): SentAttNet(
    (gru): GRU(600, 300, batch_first=True, bidirectional=True)
    (sent): Linear(in_features=600, out_features=600, bias=True)
    (context): Linear(in_features=600, out_features=1, bias=False)
    (fc): Linear(in_features=600, out_features=2, bias=True)
    (pack): PackSequence()
    (unpack): PadPackedSequence()
  )
  (word_att_net_text): WordAttNet(
    (gru): GRU(300, 300, batch_first=True, bidirectional=True)
    (attention): LuongAttention(
      (W): Linear(in_features=600, out_features=1, bias=False)
    )
    (lookup): Embedding(2196024, 300)
    (pack): PackSequence()
    (unpack): PadPackedSequence()
  )
)
optimizer: Adam (
Parameter Group 0
    amsgrad: False
    betas: (0.9, 0.999)
    eps: 1e-08
    lr: 0.0005
    weight_decay: 0
)
loss: CrossEntropyLoss()
[2020-04-03 01:10:23] - slp - ERROR -- Current run is terminating due to exception: .
[2020-04-03 01:10:23] - slp - ERROR -- Engine run is terminating due to exception: .
…
[2020-04-03 01:11:02] - slp - INFO -- BENCHMARK: load(*(<slp.util.embeddings.EmbeddingsLoader object at 0x7f15f7fe83c8>,), **{}) took: 10.992849349975586 sec
[2020-04-03 01:11:20] - slp - INFO -- Trainer configured to run experiment
	pretrained model: None None
	checkpoint directory: ../checkpoints
	patience: 10
	accumulation steps: 1
	non blocking: True
	retain graph: False
	device: cuda
	model dtype: torch.float32
	parallel: False
[2020-04-03 01:11:20] - slp - INFO -- Trainer will run for
model: HierAttNet(
  (sent_att_net): SentAttNet(
    (gru): GRU(600, 300, batch_first=True, bidirectional=True)
    (sent): Linear(in_features=600, out_features=600, bias=True)
    (context): Linear(in_features=600, out_features=1, bias=False)
    (fc): Linear(in_features=600, out_features=2, bias=True)
    (pack): PackSequence()
    (unpack): PadPackedSequence()
  )
  (word_att_net_text): WordAttNet(
    (gru): GRU(300, 300, batch_first=True, bidirectional=True)
    (attention): LuongAttention(
      (W): Linear(in_features=300, out_features=1, bias=False)
    )
    (lookup): Embedding(2196024, 300)
    (pack): PackSequence()
    (unpack): PadPackedSequence()
  )
)
optimizer: Adam (
Parameter Group 0
    amsgrad: False
    betas: (0.9, 0.999)
    eps: 1e-08
    lr: 0.0005
    weight_decay: 0
)
loss: CrossEntropyLoss()
[2020-04-03 01:17:10] - slp - ERROR -- Current run is terminating due to exception: .
[2020-04-03 01:17:10] - slp - ERROR -- Engine run is terminating due to exception: .
…
[2020-04-17 16:40:06] - slp - INFO -- BENCHMARK: load(*(<slp.util.embeddings.EmbeddingsLoader object at 0x7f5eaa978518>,), **{}) took: 22.19778299331665 sec
[2020-04-17 16:40:37] - slp - INFO -- Trainer configured to run experiment
	pretrained model: None None
	checkpoint directory: None
	patience: 10
	accumulation steps: 1
	non blocking: True
	retain graph: False
	device: cuda
	model dtype: torch.float32
	parallel: False
[2020-04-17 16:40:37] - slp - INFO -- Trainer will run for
model: DRNN(
  (cells): Sequential(
    (0): GRU(300, 300)
    (1): GRU(300, 300)
    (2): GRU(300, 300)
  )
  (lookup): Embedding(2196024, 300)
  (fc): Linear(in_features=300, out_features=2, bias=True)
)
optimizer: Adam (
Parameter Group 0
    amsgrad: False
    betas: (0.9, 0.999)
    eps: 1e-08
    lr: 0.0005
    weight_decay: 0
)
loss: CrossEntropyLoss()
[2020-04-17 20:42:44] - slp - INFO -- Trainer configured to run experiment
	pretrained model: None None
	checkpoint directory: None
	patience: 10
	accumulation steps: 1
	non blocking: True
	retain graph: False
	device: cuda
	model dtype: torch.float32
	parallel: False
[2020-04-17 20:42:44] - slp - INFO -- Trainer will run for
model: DRNN(
  (cells): Sequential(
    (0): GRU(300, 300)
    (1): GRU(300, 300)
    (2): GRU(300, 300)
  )
  (lookup): Embedding(2196024, 300)
  (fc): Linear(in_features=300, out_features=2, bias=True)
)
optimizer: Adam (
Parameter Group 0
    amsgrad: False
    betas: (0.9, 0.999)
    eps: 1e-08
    lr: 0.0005
    weight_decay: 0
)
loss: CrossEntropyLoss()
[2020-04-17 23:31:41] - slp - INFO -- Trainer configured to run experiment
	pretrained model: None None
	checkpoint directory: None
	patience: 10
	accumulation steps: 1
	non blocking: True
	retain graph: False
	device: cuda
	model dtype: torch.float32
	parallel: False
[2020-04-17 23:31:41] - slp - INFO -- Trainer will run for
model: DRNN(
  (cells): Sequential(
    (0): GRU(300, 300)
    (1): GRU(300, 300)
    (2): GRU(300, 300)
  )
  (lookup): Embedding(2196024, 300)
  (fc): Linear(in_features=300, out_features=2, bias=True)
)
optimizer: Adam (
Parameter Group 0
    amsgrad: False
    betas: (0.9, 0.999)
    eps: 1e-08
    lr: 0.0005
    weight_decay: 0
)
loss: CrossEntropyLoss()
[2020-04-18 02:21:16] - slp - INFO -- Trainer configured to run experiment
	pretrained model: None None
	checkpoint directory: None
	patience: 10
	accumulation steps: 1
	non blocking: True
	retain graph: False
	device: cuda
	model dtype: torch.float32
	parallel: False
[2020-04-18 02:21:16] - slp - INFO -- Trainer will run for
model: DRNN(
  (cells): Sequential(
    (0): GRU(300, 300)
    (1): GRU(300, 300)
    (2): GRU(300, 300)
  )
  (lookup): Embedding(2196024, 300)
  (fc): Linear(in_features=300, out_features=2, bias=True)
)
optimizer: Adam (
Parameter Group 0
    amsgrad: False
    betas: (0.9, 0.999)
    eps: 1e-08
    lr: 0.0005
    weight_decay: 0
)
loss: CrossEntropyLoss()
[2020-04-18 04:34:43] - slp - INFO -- Trainer configured to run experiment
	pretrained model: None None
	checkpoint directory: None
	patience: 10
	accumulation steps: 1
	non blocking: True
	retain graph: False
	device: cuda
	model dtype: torch.float32
	parallel: False
[2020-04-18 04:34:43] - slp - INFO -- Trainer will run for
model: DRNN(
  (cells): Sequential(
    (0): GRU(300, 300)
    (1): GRU(300, 300)
    (2): GRU(300, 300)
  )
  (lookup): Embedding(2196024, 300)
  (fc): Linear(in_features=300, out_features=2, bias=True)
)
optimizer: Adam (
Parameter Group 0
    amsgrad: False
    betas: (0.9, 0.999)
    eps: 1e-08
    lr: 0.0005
    weight_decay: 0
)
loss: CrossEntropyLoss()
[2020-04-19 02:46:51] - slp - INFO -- PyTorch version 1.2.0 available.
[2020-04-19 02:46:51] - slp - INFO -- Better speed can be achieved with apex installed from https://www.github.com/nvidia/apex .
…
[2020-04-20 04:10:15] - slp - INFO -- BENCHMARK: load(*(<slp.util.embeddings.EmbeddingsLoader object at 0x7f71fcc0d518>,), **{}) took: 10.797621488571167 sec
[2020-04-20 04:12:37] - slp - INFO -- Trainer configured to run experiment
	pretrained model: None None
	checkpoint directory: None
	patience: 10
	accumulation steps: 1
	non blocking: True
	retain graph: False
	device: cuda
	model dtype: torch.float32
	parallel: False
[2020-04-20 04:12:37] - slp - INFO -- Trainer will run for
model: DRNN(
  (cells): Sequential(
    (0): GRU(300, 300)
    (1): GRU(300, 300)
    (2): GRU(300, 300)
  )
  (lookup): Embedding(2196024, 300)
  (fc): Linear(in_features=300, out_features=2, bias=True)
)
optimizer: Adam (
Parameter Group 0
    amsgrad: False
    betas: (0.9, 0.999)
    eps: 1e-08
    lr: 0.0005
    weight_decay: 0
)
loss: CrossEntropyLoss()
[2020-04-20 04:13:23] - slp - INFO -- Trainer configured to run experiment
	pretrained model: None None
	checkpoint directory: None
	patience: 10
	accumulation steps: 1
	non blocking: True
	retain graph: False
	device: cuda
	model dtype: torch.float32
	parallel: False
[2020-04-20 04:13:23] - slp - INFO -- Trainer will run for
model: DRNN(
  (cells): Sequential(
    (0): GRU(300, 300)
    (1): GRU(300, 300)
    (2): GRU(300, 300)
  )
  (lookup): Embedding(2196024, 300)
  (fc): Linear(in_features=300, out_features=2, bias=True)
)
optimizer: Adam (
Parameter Group 0
    amsgrad: False
    betas: (0.9, 0.999)
    eps: 1e-08
    lr: 0.0005
    weight_decay: 0
)
loss: CrossEntropyLoss()
[2020-04-20 05:19:04] - slp - INFO -- Trainer configured to run experiment
	pretrained model: None None
	checkpoint directory: None
	patience: 10
	accumulation steps: 1
	non blocking: True
	retain graph: False
	device: cuda
	model dtype: torch.float32
	parallel: False
[2020-04-20 05:19:04] - slp - INFO -- Trainer will run for
model: DRNN(
  (cells): Sequential(
    (0): GRU(300, 300)
    (1): GRU(300, 300)
    (2): GRU(300, 300)
  )
  (lookup): Embedding(2196024, 300)
  (fc): Linear(in_features=300, out_features=2, bias=True)
)
optimizer: Adam (
Parameter Group 0
    amsgrad: False
    betas: (0.9, 0.999)
    eps: 1e-08
    lr: 0.0005
    weight_decay: 0
)
loss: CrossEntropyLoss()
[2020-04-20 06:39:54] - slp - INFO -- Trainer configured to run experiment
	pretrained model: None None
	checkpoint directory: None
	patience: 10
	accumulation steps: 1
	non blocking: True
	retain graph: False
	device: cuda
	model dtype: torch.float32
	parallel: False
[2020-04-20 06:39:54] - slp - INFO -- Trainer will run for
model: DRNN(
  (cells): Sequential(
    (0): GRU(300, 300)
    (1): GRU(300, 300)
    (2): GRU(300, 300)
  )
  (lookup): Embedding(2196024, 300)
  (fc): Linear(in_features=300, out_features=2, bias=True)
)
optimizer: Adam (
Parameter Group 0
    amsgrad: False
    betas: (0.9, 0.999)
    eps: 1e-08
    lr: 0.0005
    weight_decay: 0
)
loss: CrossEntropyLoss()
[2020-04-20 06:49:37] - slp - INFO -- Trainer configured to run experiment
	pretrained model: None None
	checkpoint directory: None
	patience: 10
	accumulation steps: 1
	non blocking: True
	retain graph: False
	device: cuda
	model dtype: torch.float32
	parallel: False
[2020-04-20 06:49:37] - slp - INFO -- Trainer will run for
model: DRNN(
  (cells): Sequential(
    (0): GRU(300, 300)
    (1): GRU(300, 300)
    (2): GRU(300, 300)
  )
  (lookup): Embedding(2196024, 300)
  (fc): Linear(in_features=300, out_features=2, bias=True)
)
optimizer: Adam (
Parameter Group 0
    amsgrad: False
    betas: (0.9, 0.999)
    eps: 1e-08
    lr: 0.0005
    weight_decay: 0
)
loss: CrossEntropyLoss()
[2020-04-20 07:46:52] - slp - INFO -- Trainer configured to run experiment
	pretrained model: None None
	checkpoint directory: None
	patience: 10
	accumulation steps: 1
	non blocking: True
	retain graph: False
	device: cuda
	model dtype: torch.float32
	parallel: False
[2020-04-20 07:46:52] - slp - INFO -- Trainer will run for
model: DRNN(
  (cells): Sequential(
    (0): GRU(300, 300)
    (1): GRU(300, 300)
    (2): GRU(300, 300)
  )
  (lookup): Embedding(2196024, 300)
  (fc): Linear(in_features=300, out_features=2, bias=True)
)
optimizer: Adam (
Parameter Group 0
    amsgrad: False
    betas: (0.9, 0.999)
    eps: 1e-08
    lr: 0.0005
    weight_decay: 0
)
loss: CrossEntropyLoss()
[2020-04-20 09:13:23] - slp - INFO -- Trainer configured to run experiment
	pretrained model: None None
	checkpoint directory: None
	patience: 10
	accumulation steps: 1
	non blocking: True
	retain graph: False
	device: cuda
	model dtype: torch.float32
	parallel: False
[2020-04-20 09:13:23] - slp - INFO -- Trainer will run for
model: DRNN(
  (cells): Sequential(
    (0): GRU(300, 300)
    (1): GRU(300, 300)
    (2): GRU(300, 300)
  )
  (lookup): Embedding(2196024, 300)
  (fc): Linear(in_features=300, out_features=2, bias=True)
)
optimizer: Adam (
Parameter Group 0
    amsgrad: False
    betas: (0.9, 0.999)
    eps: 1e-08
    lr: 0.0005
    weight_decay: 0
)
loss: CrossEntropyLoss()
[2020-04-20 09:59:03] - slp - INFO -- Trainer configured to run experiment
	pretrained model: None None
	checkpoint directory: None
	patience: 10
	accumulation steps: 1
	non blocking: True
	retain graph: False
	device: cuda
	model dtype: torch.float32
	parallel: False
[2020-04-20 09:59:03] - slp - INFO -- Trainer will run for
model: DRNN(
  (cells): Sequential(
    (0): GRU(300, 300)
    (1): GRU(300, 300)
    (2): GRU(300, 300)
  )
  (lookup): Embedding(2196024, 300)
  (fc): Linear(in_features=300, out_features=2, bias=True)
)
optimizer: Adam (
Parameter Group 0
    amsgrad: False
    betas: (0.9, 0.999)
    eps: 1e-08
    lr: 0.0005
    weight_decay: 0
)
loss: CrossEntropyLoss()
[2020-04-20 11:46:58] - slp - INFO -- Trainer configured to run experiment
	pretrained model: None None
	checkpoint directory: None
	patience: 10
	accumulation steps: 1
	non blocking: True
	retain graph: False
	device: cuda
	model dtype: torch.float32
	parallel: False
[2020-04-20 11:46:58] - slp - INFO -- Trainer will run for
model: DRNN(
  (cells): Sequential(
    (0): GRU(300, 300)
    (1): GRU(300, 300)
    (2): GRU(300, 300)
  )
  (lookup): Embedding(2196024, 300)
  (fc): Linear(in_features=300, out_features=2, bias=True)
)
optimizer: Adam (
Parameter Group 0
    amsgrad: False
    betas: (0.9, 0.999)
    eps: 1e-08
    lr: 0.0005
    weight_decay: 0
)
loss: CrossEntropyLoss()
[2020-04-20 16:49:04] - slp - INFO -- Trainer configured to run experiment
	pretrained model: None None
	checkpoint directory: None
	patience: 10
	accumulation steps: 1
	non blocking: True
	retain graph: False
	device: cuda
	model dtype: torch.float32
	parallel: False
[2020-04-20 16:49:04] - slp - INFO -- Trainer will run for
model: DRNN(
  (cells): Sequential(
    (0): GRU(300, 300)
    (1): GRU(300, 300)
    (2): GRU(300, 300)
  )
  (lookup): Embedding(2196024, 300)
  (fc): Linear(in_features=300, out_features=2, bias=True)
)
optimizer: Adam (
Parameter Group 0
    amsgrad: False
    betas: (0.9, 0.999)
    eps: 1e-08
    lr: 0.0005
    weight_decay: 0
)
loss: CrossEntropyLoss()
[2020-04-21 00:10:33] - slp - INFO -- PyTorch version 1.2.0 available.
[2020-04-21 00:10:33] - slp - INFO -- Better speed can be achieved with apex installed from https://www.github.com/nvidia/apex .
…
[2020-04-21 21:53:50] - slp - ERROR -- Engine run is terminating due to exception: CUDA out of memory. Tried to allocate 22.00 MiB (GPU 0; 11.93 GiB total capacity; 5.17 GiB already allocated; 9.31 MiB free; 64.07 MiB cached).
[2020-04-22 00:06:13] - slp - INFO -- Trainer configured to run experiment
	pretrained model: None None
	checkpoint directory: None
	patience: 10
	accumulation steps: 1
	non blocking: True
	retain graph: False
	device: cuda
	model dtype: torch.float32
	parallel: False
[2020-04-22 00:06:13] - slp - INFO -- Trainer will run for
model: HierAttNet(
  (sent_att_net): SentAttNet(
    (gru): GRU(600, 300, batch_first=True, bidirectional=True)
    (sent): Linear(in_features=600, out_features=600, bias=True)
    (context): Linear(in_features=600, out_features=1, bias=False)
    (fc): Linear(in_features=600, out_features=2, bias=True)
    (pack): PackSequence()
    (unpack): PadPackedSequence()
  )
  (word_att_net_text): WordAttNet(
    (gru): GRU(300, 300, batch_first=True, bidirectional=True)
    (word): Linear(in_features=600, out_features=600, bias=True)
    (context): Linear(in_features=600, out_features=1, bias=False)
    (lookup): Embedding(2196024, 300)
    (pack): PackSequence()
    (unpack): PadPackedSequence()
  )
)
optimizer: Adam (
Parameter Group 0
    amsgrad: False
    betas: (0.9, 0.999)
    eps: 1e-08
    lr: 0.0005
    weight_decay: 0
)
loss: CrossEntropyLoss()
[2020-04-22 03:50:20] - slp - INFO -- Trainer configured to run experiment
	pretrained model: None None
	checkpoint directory: None
	patience: 10
	accumulation steps: 1
	non blocking: True
	retain graph: False
	device: cuda
	model dtype: torch.float32
	parallel: False
[2020-04-22 03:50:20] - slp - INFO -- Trainer will run for
model: HierAttNet(
  (sent_att_net): SentAttNet(
    (gru): GRU(600, 300, batch_first=True, bidirectional=True)
    (sent): Linear(in_features=600, out_features=600, bias=True)
    (context): Linear(in_features=600, out_features=1, bias=False)
    (fc): Linear(in_features=600, out_features=2, bias=True)
    (pack): PackSequence()
    (unpack): PadPackedSequence()
  )
  (word_att_net_text): WordAttNet(
    (gru): GRU(300, 300, batch_first=True, bidirectional=True)
    (word): Linear(in_features=600, out_features=600, bias=True)
    (context): Linear(in_features=600, out_features=1, bias=False)
    (lookup): Embedding(2196024, 300)
    (pack): PackSequence()
    (unpack): PadPackedSequence()
  )
)
optimizer: Adam (
Parameter Group 0
    amsgrad: False
    betas: (0.9, 0.999)
    eps: 1e-08
    lr: 0.0005
    weight_decay: 0
)
loss: CrossEntropyLoss()
[2020-04-22 06:33:08] - slp - INFO -- Trainer configured to run experiment
	pretrained model: None None
	checkpoint directory: None
	patience: 10
	accumulation steps: 1
	non blocking: True
	retain graph: False
	device: cuda
	model dtype: torch.float32
	parallel: False
[2020-04-22 06:33:08] - slp - INFO -- Trainer will run for
model: HierAttNet(
  (sent_att_net): SentAttNet(
    (gru): GRU(600, 300, batch_first=True, bidirectional=True)
    (sent): Linear(in_features=600, out_features=600, bias=True)
    (context): Linear(in_features=600, out_features=1, bias=False)
    (fc): Linear(in_features=600, out_features=2, bias=True)
    (pack): PackSequence()
    (unpack): PadPackedSequence()
  )
  (word_att_net_text): WordAttNet(
    (gru): GRU(300, 300, batch_first=True, bidirectional=True)
    (word): Linear(in_features=600, out_features=600, bias=True)
    (context): Linear(in_features=600, out_features=1, bias=False)
    (lookup): Embedding(2196024, 300)
    (pack): PackSequence()
    (unpack): PadPackedSequence()
  )
)
optimizer: Adam (
Parameter Group 0
    amsgrad: False
    betas: (0.9, 0.999)
    eps: 1e-08
    lr: 0.0005
    weight_decay: 0
)
loss: CrossEntropyLoss()
[2020-04-22 08:57:51] - slp - INFO -- Trainer configured to run experiment
	pretrained model: None None
	checkpoint directory: None
	patience: 10
	accumulation steps: 1
	non blocking: True
	retain graph: False
	device: cuda
	model dtype: torch.float32
	parallel: False
[2020-04-22 08:57:51] - slp - INFO -- Trainer will run for
model: HierAttNet(
  (sent_att_net): SentAttNet(
    (gru): GRU(600, 300, batch_first=True, bidirectional=True)
    (sent): Linear(in_features=600, out_features=600, bias=True)
    (context): Linear(in_features=600, out_features=1, bias=False)
    (fc): Linear(in_features=600, out_features=2, bias=True)
    (pack): PackSequence()
    (unpack): PadPackedSequence()
  )
  (word_att_net_text): WordAttNet(
    (gru): GRU(300, 300, batch_first=True, bidirectional=True)
    (word): Linear(in_features=600, out_features=600, bias=True)
    (context): Linear(in_features=600, out_features=1, bias=False)
    (lookup): Embedding(2196024, 300)
    (pack): PackSequence()
    (unpack): PadPackedSequence()
  )
)
optimizer: Adam (
Parameter Group 0
    amsgrad: False
    betas: (0.9, 0.999)
    eps: 1e-08
    lr: 0.0005
    weight_decay: 0
)
loss: CrossEntropyLoss()
[2020-04-22 12:48:31] - slp - INFO -- PyTorch version 1.2.0 available.
[2020-04-22 12:48:31] - slp - INFO -- Better speed can be achieved with apex installed from https://www.github.com/nvidia/apex .
…
[2020-04-23 16:10:04] - slp - INFO -- BENCHMARK: load(*(<slp.util.embeddings.EmbeddingsLoader object at 0x7fc0cfbbd5c0>,), **{}) took: 10.590137481689453 sec
[2020-04-23 16:12:37] - slp - INFO -- Trainer configured to run experiment
	pretrained model: None None
	checkpoint directory: None
	patience: 10
	accumulation steps: 1
	non blocking: True
	retain graph: False
	device: cuda
	model dtype: torch.float32
	parallel: False
[2020-04-23 16:12:37] - slp - INFO -- Trainer will run for
model: DRNN(
  (cells): Sequential(
    (0): GRU(300, 300)
    (1): GRU(300, 300)
    (2): GRU(300, 300)
    (3): GRU(300, 300)
    (4): GRU(300, 300)
  )
  (lookup): Embedding(2196024, 300)
  (attention): Attention(
    (k): Linear(in_features=300, out_features=300, bias=False)
    (q): Linear(in_features=300, out_features=300, bias=False)
    (v): Linear(in_features=300, out_features=300, bias=False)
    (drop): Dropout(p=0, inplace=False)
  )
  (fc): Linear(in_features=300, out_features=2, bias=True)
)
optimizer: Adam (
Parameter Group 0
    amsgrad: False
    betas: (0.9, 0.999)
    eps: 1e-08
    lr: 0.0005
    weight_decay: 0
)
loss: CrossEntropyLoss()
[2020-04-23 16:12:39] - slp - ERROR -- Current run is terminating due to exception: Expected input batch_size (9183) to match target batch_size (8)..
[2020-04-23 16:12:39] - slp - ERROR -- Engine run is terminating due to exception: Expected input batch_size (9183) to match target batch_size (8)..
…
[2020-05-02 00:17:55] - slp - INFO -- BENCHMARK: load(*(<slp.util.embeddings.EmbeddingsLoader object at 0x7f07ac2535c0>,), **{}) took: 53.89158248901367 sec
[2020-05-02 00:22:13] - slp - INFO -- Trainer configured to run experiment
	pretrained model: None None
	checkpoint directory: None
	patience: 10
	accumulation steps: 1
	non blocking: True
	retain graph: False
	device: cuda
	model dtype: torch.float32
	parallel: False
[2020-05-02 00:22:13] - slp - INFO -- Trainer will run for
model: HierAttNet(
  (sent_att_net): SentAttNet(
    (gru): GRU(600, 300, batch_first=True, bidirectional=True)
    (sent): Linear(in_features=600, out_features=600, bias=True)
    (context): Linear(in_features=600, out_features=1, bias=False)
    (fc): Linear(in_features=600, out_features=2, bias=True)
    (pack): PackSequence()
    (unpack): PadPackedSequence()
  )
  (word_att_net_text): WordAttNet(
    (gru): GRU(300, 300, batch_first=True, bidirectional=True)
    (word): Linear(in_features=600, out_features=600, bias=True)
    (context): Linear(in_features=600, out_features=1, bias=False)
    (lookup): Embedding(26806, 300)
    (pack): PackSequence()
    (unpack): PadPackedSequence()
  )
)
optimizer: Adam (
Parameter Group 0
    amsgrad: False
    betas: (0.9, 0.999)
    eps: 1e-08
    lr: 0.0005
    weight_decay: 0
)
loss: CrossEntropyLoss()
[2020-05-02 00:40:17] - slp - INFO -- PyTorch version 1.2.0 available.
[2020-05-02 00:40:17] - slp - INFO -- Better speed can be achieved with apex installed from https://www.github.com/nvidia/apex .
…
[2020-05-02 00:44:51] - slp - INFO -- BENCHMARK: load(*(<slp.util.embeddings.EmbeddingsLoader object at 0x7f16aa7ca4e0>,), **{}) took: 55.35317039489746 sec
[2020-05-02 00:48:27] - slp - INFO -- Trainer configured to run experiment
	pretrained model: None None
	checkpoint directory: ../checkpoints
	patience: 10
	accumulation steps: 1
	non blocking: True
	retain graph: False
	device: cuda
	model dtype: torch.float32
	parallel: False
[2020-05-02 00:48:27] - slp - INFO -- Trainer will run for
model: HierAttNet(
  (sent_att_net): SentAttNet(
    (gru): GRU(600, 300, batch_first=True, bidirectional=True)
    (sent): Linear(in_features=600, out_features=600, bias=True)
    (context): Linear(in_features=600, out_features=1, bias=False)
    (fc): Linear(in_features=600, out_features=2, bias=True)
    (pack): PackSequence()
    (unpack): PadPackedSequence()
  )
  (word_att_net_text): WordAttNet(
    (gru): GRU(300, 300, batch_first=True, bidirectional=True)
    (word): Linear(in_features=600, out_features=600, bias=True)
    (context): Linear(in_features=600, out_features=1, bias=False)
    (lookup): Embedding(26806, 300)
    (pack): PackSequence()
    (unpack): PadPackedSequence()
  )
)
optimizer: Adam (
Parameter Group 0
    amsgrad: False
    betas: (0.9, 0.999)
    eps: 1e-08
    lr: 0.0005
    weight_decay: 0
)
loss: CrossEntropyLoss()
[2020-05-02 00:54:54] - slp - ERROR -- Current run is terminating due to exception: .
[2020-05-02 00:54:54] - slp - WARNING -- CTRL-C caught. Exiting gracefully...
[2020-05-02 00:54:54] - slp - INFO -- Trainer configured to run experiment
	pretrained model: None None
	checkpoint directory: None
	patience: 10
	accumulation steps: 1
	non blocking: True
	retain graph: False
	device: cuda
	model dtype: torch.float32
	parallel: False
[2020-05-02 00:54:54] - slp - INFO -- Trainer will run for
model: HierAttNet(
  (sent_att_net): SentAttNet(
    (gru): GRU(600, 300, batch_first=True, bidirectional=True)
    (sent): Linear(in_features=600, out_features=600, bias=True)
    (context): Linear(in_features=600, out_features=1, bias=False)
    (fc): Linear(in_features=600, out_features=2, bias=True)
    (pack): PackSequence()
    (unpack): PadPackedSequence()
  )
  (word_att_net_text): WordAttNet(
    (gru): GRU(300, 300, batch_first=True, bidirectional=True)
    (word): Linear(in_features=600, out_features=600, bias=True)
    (context): Linear(in_features=600, out_features=1, bias=False)
    (lookup): Embedding(26806, 300)
    (pack): PackSequence()
    (unpack): PadPackedSequence()
  )
)
optimizer: Adam (
Parameter Group 0
    amsgrad: False
    betas: (0.9, 0.999)
    eps: 1e-08
    lr: 0.0005
    weight_decay: 0
)
loss: CrossEntropyLoss()
[2020-05-02 00:54:56] - slp - ERROR -- Current run is terminating due to exception: .
[2020-05-02 00:54:56] - slp - WARNING -- CTRL-C caught. Exiting gracefully...
[2020-05-02 00:54:59] - slp - INFO -- PyTorch version 1.2.0 available.
…
[2020-05-02 01:51:53] - slp - INFO -- BENCHMARK: load(*(<slp.util.embeddings.EmbeddingsLoader object at 0x7fa117e53588>,), **{}) took: 81.82872414588928 sec
[2020-05-02 01:57:28] - slp - INFO -- Trainer configured to run experiment
	pretrained model: None None
	checkpoint directory: ../checkpoints
	patience: 10
	accumulation steps: 1
	non blocking: True
	retain graph: False
	device: cuda
	model dtype: torch.float32
	parallel: False
[2020-05-02 01:57:28] - slp - INFO -- Trainer will run for
model: HierAttNet(
  (sent_att_net): SentAttNet(
    (gru): GRU(600, 300, batch_first=True, bidirectional=True)
    (sent): Linear(in_features=600, out_features=600, bias=True)
    (context): Linear(in_features=600, out_features=1, bias=False)
    (fc): Linear(in_features=600, out_features=2, bias=True)
    (pack): PackSequence()
    (unpack): PadPackedSequence()
  )
  (word_att_net_text): WordAttNet(
    (gru): GRU(300, 300, batch_first=True, bidirectional=True)
    (word): Linear(in_features=600, out_features=600, bias=True)
    (context): Linear(in_features=600, out_features=1, bias=False)
    (lookup): Embedding(26608, 300)
    (pack): PackSequence()
    (unpack): PadPackedSequence()
  )
)
optimizer: Adam (
Parameter Group 0
    amsgrad: False
    betas: (0.9, 0.999)
    eps: 1e-08
    lr: 0.0005
    weight_decay: 0
)
loss: CrossEntropyLoss()
[2020-05-02 03:10:02] - slp - INFO -- Trainer configured to run experiment
	pretrained model: None None
	checkpoint directory: None
	patience: 10
	accumulation steps: 1
	non blocking: True
	retain graph: False
	device: cuda
	model dtype: torch.float32
	parallel: False
[2020-05-02 03:10:02] - slp - INFO -- Trainer will run for
model: HierAttNet(
  (sent_att_net): SentAttNet(
    (gru): GRU(600, 300, batch_first=True, bidirectional=True)
    (sent): Linear(in_features=600, out_features=600, bias=True)
    (context): Linear(in_features=600, out_features=1, bias=False)
    (fc): Linear(in_features=600, out_features=2, bias=True)
    (pack): PackSequence()
    (unpack): PadPackedSequence()
  )
  (word_att_net_text): WordAttNet(
    (gru): GRU(300, 300, batch_first=True, bidirectional=True)
    (word): Linear(in_features=600, out_features=600, bias=True)
    (context): Linear(in_features=600, out_features=1, bias=False)
    (lookup): Embedding(26806, 300)
    (pack): PackSequence()
    (unpack): PadPackedSequence()
  )
)
optimizer: Adam (
Parameter Group 0
    amsgrad: False
    betas: (0.9, 0.999)
    eps: 1e-08
    lr: 0.0005
    weight_decay: 0
)
loss: CrossEntropyLoss()
[2020-05-02 03:43:17] - slp - INFO -- Trainer configured to run experiment
	pretrained model: None None
	checkpoint directory: ../checkpoints
	patience: 10
	accumulation steps: 1
	non blocking: True
	retain graph: False
	device: cuda
	model dtype: torch.float32
	parallel: False
[2020-05-02 03:43:17] - slp - INFO -- Trainer will run for
model: HierAttNet(
  (sent_att_net): SentAttNet(
    (gru): GRU(600, 300, batch_first=True, bidirectional=True)
    (sent): Linear(in_features=600, out_features=600, bias=True)
    (context): Linear(in_features=600, out_features=1, bias=False)
    (fc): Linear(in_features=600, out_features=2, bias=True)
    (pack): PackSequence()
    (unpack): PadPackedSequence()
  )
  (word_att_net_text): WordAttNet(
    (gru): GRU(300, 300, batch_first=True, bidirectional=True)
    (word): Linear(in_features=600, out_features=600, bias=True)
    (context): Linear(in_features=600, out_features=1, bias=False)
    (lookup): Embedding(26806, 300)
    (pack): PackSequence()
    (unpack): PadPackedSequence()
  )
)
optimizer: Adam (
Parameter Group 0
    amsgrad: False
    betas: (0.9, 0.999)
    eps: 1e-08
    lr: 0.0005
    weight_decay: 0
)
loss: CrossEntropyLoss()
[2020-05-02 04:13:07] - slp - INFO -- Trainer configured to run experiment
	pretrained model: None None
	checkpoint directory: None
	patience: 10
	accumulation steps: 1
	non blocking: True
	retain graph: False
	device: cuda
	model dtype: torch.float32
	parallel: False
[2020-05-02 04:13:07] - slp - INFO -- Trainer will run for
model: HierAttNet(
  (sent_att_net): SentAttNet(
    (gru): GRU(600, 300, batch_first=True, bidirectional=True)
    (sent): Linear(in_features=600, out_features=600, bias=True)
    (context): Linear(in_features=600, out_features=1, bias=False)
    (fc): Linear(in_features=600, out_features=2, bias=True)
    (pack): PackSequence()
    (unpack): PadPackedSequence()
  )
  (word_att_net_text): WordAttNet(
    (gru): GRU(300, 300, batch_first=True, bidirectional=True)
    (word): Linear(in_features=600, out_features=600, bias=True)
    (context): Linear(in_features=600, out_features=1, bias=False)
    (lookup): Embedding(26806, 300)
    (pack): PackSequence()
    (unpack): PadPackedSequence()
  )
)
optimizer: Adam (
Parameter Group 0
    amsgrad: False
    betas: (0.9, 0.999)
    eps: 1e-08
    lr: 0.0005
    weight_decay: 0
)
loss: CrossEntropyLoss()
[2020-05-02 05:37:32] - slp - INFO -- Trainer configured to run experiment
	pretrained model: None None
	checkpoint directory: ../checkpoints
	patience: 10
	accumulation steps: 1
	non blocking: True
	retain graph: False
	device: cuda
	model dtype: torch.float32
	parallel: False
[2020-05-02 05:37:32] - slp - INFO -- Trainer will run for
model: HierAttNet(
  (sent_att_net): SentAttNet(
    (gru): GRU(600, 300, batch_first=True, bidirectional=True)
    (sent): Linear(in_features=600, out_features=600, bias=True)
    (context): Linear(in_features=600, out_features=1, bias=False)
    (fc): Linear(in_features=600, out_features=2, bias=True)
    (pack): PackSequence()
    (unpack): PadPackedSequence()
  )
  (word_att_net_text): WordAttNet(
    (gru): GRU(300, 300, batch_first=True, bidirectional=True)
    (word): Linear(in_features=600, out_features=600, bias=True)
    (context): Linear(in_features=600, out_features=1, bias=False)
    (lookup): Embedding(26608, 300)
    (pack): PackSequence()
    (unpack): PadPackedSequence()
  )
)
optimizer: Adam (
Parameter Group 0
    amsgrad: False
    betas: (0.9, 0.999)
    eps: 1e-08
    lr: 0.0005
    weight_decay: 0
)
loss: CrossEntropyLoss()
[2020-05-02 05:44:14] - slp - INFO -- Trainer configured to run experiment
	pretrained model: None None
	checkpoint directory: None
	patience: 10
	accumulation steps: 1
	non blocking: True
	retain graph: False
	device: cuda
	model dtype: torch.float32
	parallel: False
[2020-05-02 05:44:14] - slp - INFO -- Trainer will run for
model: HierAttNet(
  (sent_att_net): SentAttNet(
    (gru): GRU(600, 300, batch_first=True, bidirectional=True)
    (sent): Linear(in_features=600, out_features=600, bias=True)
    (context): Linear(in_features=600, out_features=1, bias=False)
    (fc): Linear(in_features=600, out_features=2, bias=True)
    (pack): PackSequence()
    (unpack): PadPackedSequence()
  )
  (word_att_net_text): WordAttNet(
    (gru): GRU(300, 300, batch_first=True, bidirectional=True)
    (word): Linear(in_features=600, out_features=600, bias=True)
    (context): Linear(in_features=600, out_features=1, bias=False)
    (lookup): Embedding(26806, 300)
    (pack): PackSequence()
    (unpack): PadPackedSequence()
  )
)
optimizer: Adam (
Parameter Group 0
    amsgrad: False
    betas: (0.9, 0.999)
    eps: 1e-08
    lr: 0.0005
    weight_decay: 0
)
loss: CrossEntropyLoss()
[2020-05-02 07:09:43] - slp - INFO -- Trainer configured to run experiment
	pretrained model: None None
	checkpoint directory: None
	patience: 10
	accumulation steps: 1
	non blocking: True
	retain graph: False
	device: cuda
	model dtype: torch.float32
	parallel: False
[2020-05-02 07:09:43] - slp - INFO -- Trainer will run for
model: HierAttNet(
  (sent_att_net): SentAttNet(
    (gru): GRU(600, 300, batch_first=True, bidirectional=True)
    (sent): Linear(in_features=600, out_features=600, bias=True)
    (context): Linear(in_features=600, out_features=1, bias=False)
    (fc): Linear(in_features=600, out_features=2, bias=True)
    (pack): PackSequence()
    (unpack): PadPackedSequence()
  )
  (word_att_net_text): WordAttNet(
    (gru): GRU(300, 300, batch_first=True, bidirectional=True)
    (word): Linear(in_features=600, out_features=600, bias=True)
    (context): Linear(in_features=600, out_features=1, bias=False)
    (lookup): Embedding(26806, 300)
    (pack): PackSequence()
    (unpack): PadPackedSequence()
  )
)
optimizer: Adam (
Parameter Group 0
    amsgrad: False
    betas: (0.9, 0.999)
    eps: 1e-08
    lr: 0.0005
    weight_decay: 0
)
loss: CrossEntropyLoss()
[2020-05-02 08:40:27] - slp - INFO -- Trainer configured to run experiment
	pretrained model: None None
	checkpoint directory: ../checkpoints
	patience: 10
	accumulation steps: 1
	non blocking: True
	retain graph: False
	device: cuda
	model dtype: torch.float32
	parallel: False
[2020-05-02 08:40:27] - slp - INFO -- Trainer will run for
model: HierAttNet(
  (sent_att_net): SentAttNet(
    (gru): GRU(600, 300, batch_first=True, bidirectional=True)
    (sent): Linear(in_features=600, out_features=600, bias=True)
    (context): Linear(in_features=600, out_features=1, bias=False)
    (fc): Linear(in_features=600, out_features=2, bias=True)
    (pack): PackSequence()
    (unpack): PadPackedSequence()
  )
  (word_att_net_text): WordAttNet(
    (gru): GRU(300, 300, batch_first=True, bidirectional=True)
    (word): Linear(in_features=600, out_features=600, bias=True)
    (context): Linear(in_features=600, out_features=1, bias=False)
    (lookup): Embedding(26806, 300)
    (pack): PackSequence()
    (unpack): PadPackedSequence()
  )
)
optimizer: Adam (
Parameter Group 0
    amsgrad: False
    betas: (0.9, 0.999)
    eps: 1e-08
    lr: 0.0005
    weight_decay: 0
)
loss: CrossEntropyLoss()
[2020-05-02 10:19:09] - slp - INFO -- Trainer configured to run experiment
	pretrained model: None None
	checkpoint directory: ../checkpoints
	patience: 10
	accumulation steps: 1
	non blocking: True
	retain graph: False
	device: cuda
	model dtype: torch.float32
	parallel: False
[2020-05-02 10:19:09] - slp - INFO -- Trainer will run for
model: HierAttNet(
  (sent_att_net): SentAttNet(
    (gru): GRU(600, 300, batch_first=True, bidirectional=True)
    (sent): Linear(in_features=600, out_features=600, bias=True)
    (context): Linear(in_features=600, out_features=1, bias=False)
    (fc): Linear(in_features=600, out_features=2, bias=True)
    (pack): PackSequence()
    (unpack): PadPackedSequence()
  )
  (word_att_net_text): WordAttNet(
    (gru): GRU(300, 300, batch_first=True, bidirectional=True)
    (word): Linear(in_features=600, out_features=600, bias=True)
    (context): Linear(in_features=600, out_features=1, bias=False)
    (lookup): Embedding(26608, 300)
    (pack): PackSequence()
    (unpack): PadPackedSequence()
  )
)
optimizer: Adam (
Parameter Group 0
    amsgrad: False
    betas: (0.9, 0.999)
    eps: 1e-08
    lr: 0.0005
    weight_decay: 0
)
loss: CrossEntropyLoss()
[2020-05-02 14:20:36] - slp - INFO -- Trainer configured to run experiment
	pretrained model: None None
	checkpoint directory: ../checkpoints
	patience: 10
	accumulation steps: 1
	non blocking: True
	retain graph: False
	device: cuda
	model dtype: torch.float32
	parallel: False
[2020-05-02 14:20:36] - slp - INFO -- Trainer will run for
model: HierAttNet(
  (sent_att_net): SentAttNet(
    (gru): GRU(600, 300, batch_first=True, bidirectional=True)
    (sent): Linear(in_features=600, out_features=600, bias=True)
    (context): Linear(in_features=600, out_features=1, bias=False)
    (fc): Linear(in_features=600, out_features=2, bias=True)
    (pack): PackSequence()
    (unpack): PadPackedSequence()
  )
  (word_att_net_text): WordAttNet(
    (gru): GRU(300, 300, batch_first=True, bidirectional=True)
    (word): Linear(in_features=600, out_features=600, bias=True)
    (context): Linear(in_features=600, out_features=1, bias=False)
    (lookup): Embedding(26608, 300)
    (pack): PackSequence()
    (unpack): PadPackedSequence()
  )
)
optimizer: Adam (
Parameter Group 0
    amsgrad: False
    betas: (0.9, 0.999)
    eps: 1e-08
    lr: 0.0005
    weight_decay: 0
)
loss: CrossEntropyLoss()
[2020-05-02 14:30:20] - slp - INFO -- Trainer configured to run experiment
	pretrained model: None None
	checkpoint directory: ../checkpoints
	patience: 10
	accumulation steps: 1
	non blocking: True
	retain graph: False
	device: cuda
	model dtype: torch.float32
	parallel: False
[2020-05-02 14:30:20] - slp - INFO -- Trainer will run for
model: HierAttNet(
  (sent_att_net): SentAttNet(
    (gru): GRU(600, 300, batch_first=True, bidirectional=True)
    (sent): Linear(in_features=600, out_features=600, bias=True)
    (context): Linear(in_features=600, out_features=1, bias=False)
    (fc): Linear(in_features=600, out_features=2, bias=True)
    (pack): PackSequence()
    (unpack): PadPackedSequence()
  )
  (word_att_net_text): WordAttNet(
    (gru): GRU(300, 300, batch_first=True, bidirectional=True)
    (word): Linear(in_features=600, out_features=600, bias=True)
    (context): Linear(in_features=600, out_features=1, bias=False)
    (lookup): Embedding(26806, 300)
    (pack): PackSequence()
    (unpack): PadPackedSequence()
  )
)
optimizer: Adam (
Parameter Group 0
    amsgrad: False
    betas: (0.9, 0.999)
    eps: 1e-08
    lr: 0.0005
    weight_decay: 0
)
loss: CrossEntropyLoss()
[2020-05-02 14:32:23] - slp - INFO -- PyTorch version 1.2.0 available.
[2020-05-02 14:32:23] - slp - INFO -- Better speed can be achieved with apex installed from https://www.github.com/nvidia/apex .
…
[2020-05-02 14:43:20] - slp - INFO -- BENCHMARK: load(*(<slp.util.embeddings.EmbeddingsLoader object at 0x7f37b1100278>,), **{}) took: 161.09823894500732 sec
[2020-05-02 14:43:41] - slp - INFO -- Trainer configured to run experiment
	pretrained model: None None
	checkpoint directory: ../checkpoints
	patience: 10
	accumulation steps: 1
	non blocking: True
	retain graph: False
	device: cuda
	model dtype: torch.float32
	parallel: False
[2020-05-02 14:43:41] - slp - INFO -- Trainer will run for
model: HierAttNet(
  (sent_att_net): SentAttNet(
    (gru): GRU(600, 300, batch_first=True, bidirectional=True)
    (sent): Linear(in_features=600, out_features=600, bias=True)
    (context): Linear(in_features=600, out_features=1, bias=False)
    (fc): Linear(in_features=600, out_features=2, bias=True)
    (pack): PackSequence()
    (unpack): PadPackedSequence()
  )
  (word_att_net_text): WordAttNet(
    (gru): GRU(300, 300, batch_first=True, bidirectional=True)
    (word): Linear(in_features=600, out_features=600, bias=True)
    (context): Linear(in_features=600, out_features=1, bias=False)
    (lookup): Embedding(2196022, 300)
    (pack): PackSequence()
    (unpack): PadPackedSequence()
  )
)
optimizer: Adam (
Parameter Group 0
    amsgrad: False
    betas: (0.9, 0.999)
    eps: 1e-08
    lr: 0.001
    weight_decay: 0
)
loss: CrossEntropyLoss()
[2020-05-02 14:43:42] - slp - ERROR -- Current run is terminating due to exception: forward() missing 3 required positional arguments: 'katiallo', 'katiallo1', and 'katiallo2'.
…
[2020-05-02 14:53:06] - slp - INFO -- BENCHMARK: load(*(<slp.util.embeddings.EmbeddingsLoader object at 0x7f2a49411198>,), **{}) took: 161.4918110370636 sec
[2020-05-02 14:53:38] - slp - INFO -- Trainer configured to run experiment
	pretrained model: None None
	checkpoint directory: None
	patience: 10
	accumulation steps: 1
	non blocking: True
	retain graph: False
	device: cuda
	model dtype: torch.float32
	parallel: False
[2020-05-02 14:53:38] - slp - INFO -- Trainer will run for
model: HierAttNet(
  (sent_att_net): SentAttNet(
    (gru): GRU(600, 300, batch_first=True, bidirectional=True)
    (sent): Linear(in_features=600, out_features=600, bias=True)
    (context): Linear(in_features=600, out_features=1, bias=False)
    (fc): Linear(in_features=600, out_features=2, bias=True)
    (pack): PackSequence()
    (unpack): PadPackedSequence()
  )
  (word_att_net_text): WordAttNet(
    (gru): GRU(300, 300, batch_first=True, bidirectional=True)
    (word): Linear(in_features=600, out_features=600, bias=True)
    (context): Linear(in_features=600, out_features=1, bias=False)
    (lookup): Embedding(2196022, 300)
    (pack): PackSequence()
    (unpack): PadPackedSequence()
  )
)
optimizer: Adam (
Parameter Group 0
    amsgrad: False
    betas: (0.9, 0.999)
    eps: 1e-08
    lr: 0.0005
    weight_decay: 0
)
loss: CrossEntropyLoss()
[2020-05-02 14:56:07] - slp - ERROR -- Current run is terminating due to exception: .
[2020-05-02 14:56:07] - slp - ERROR -- Engine run is terminating due to exception: .
[2020-05-02 17:49:26] - slp - INFO -- Trainer configured to run experiment
	pretrained model: None None
	checkpoint directory: ../checkpoints
	patience: 10
	accumulation steps: 1
	non blocking: True
	retain graph: False
	device: cuda
	model dtype: torch.float32
	parallel: False
[2020-05-02 17:49:26] - slp - INFO -- Trainer will run for
model: HierAttNet(
  (sent_att_net): SentAttNet(
    (gru): GRU(600, 300, batch_first=True, bidirectional=True)
    (sent): Linear(in_features=600, out_features=600, bias=True)
    (context): Linear(in_features=600, out_features=1, bias=False)
    (fc): Linear(in_features=600, out_features=2, bias=True)
    (pack): PackSequence()
    (unpack): PadPackedSequence()
  )
  (word_att_net_text): WordAttNet(
    (gru): GRU(300, 300, batch_first=True, bidirectional=True)
    (word): Linear(in_features=600, out_features=600, bias=True)
    (context): Linear(in_features=600, out_features=1, bias=False)
    (lookup): Embedding(26806, 300)
    (pack): PackSequence()
    (unpack): PadPackedSequence()
  )
)
optimizer: Adam (
Parameter Group 0
    amsgrad: False
    betas: (0.9, 0.999)
    eps: 1e-08
    lr: 0.0005
    weight_decay: 0
)
loss: CrossEntropyLoss()
[2020-05-02 19:32:22] - slp - INFO -- Trainer configured to run experiment
	pretrained model: None None
	checkpoint directory: ../checkpoints
	patience: 10
	accumulation steps: 1
	non blocking: True
	retain graph: False
	device: cuda
	model dtype: torch.float32
	parallel: False
[2020-05-02 19:32:22] - slp - INFO -- Trainer will run for
model: HierAttNet(
  (sent_att_net): SentAttNet(
    (gru): GRU(600, 300, batch_first=True, bidirectional=True)
    (sent): Linear(in_features=600, out_features=600, bias=True)
    (context): Linear(in_features=600, out_features=1, bias=False)
    (fc): Linear(in_features=600, out_features=2, bias=True)
    (pack): PackSequence()
    (unpack): PadPackedSequence()
  )
  (word_att_net_text): WordAttNet(
    (gru): GRU(300, 300, batch_first=True, bidirectional=True)
    (word): Linear(in_features=600, out_features=600, bias=True)
    (context): Linear(in_features=600, out_features=1, bias=False)
    (lookup): Embedding(26608, 300)
    (pack): PackSequence()
    (unpack): PadPackedSequence()
  )
)
optimizer: Adam (
Parameter Group 0
    amsgrad: False
    betas: (0.9, 0.999)
    eps: 1e-08
    lr: 0.0005
    weight_decay: 0
)
loss: CrossEntropyLoss()
[2020-05-02 20:22:06] - slp - INFO -- PyTorch version 1.2.0 available.
[2020-05-02 20:22:07] - slp - INFO -- Better speed can be achieved with apex installed from https://www.github.com/nvidia/apex .
…
[2020-05-02 20:23:49] - slp - INFO -- BENCHMARK: load(*(<slp.util.embeddings.EmbeddingsLoader object at 0x7f4b249824e0>,), **{}) took: 59.843358278274536 sec
[2020-05-02 20:24:32] - slp - INFO -- Trainer configured to run experiment
	pretrained model: None None
	checkpoint directory: ../checkpoints
	patience: 10
	accumulation steps: 1
	non blocking: True
	retain graph: False
	device: cuda
	model dtype: torch.float32
	parallel: False
[2020-05-02 20:24:32] - slp - INFO -- Trainer will run for
model: HierAttNet(
  (sent_att_net): SentAttNet(
    (gru): GRU(600, 300, batch_first=True, bidirectional=True)
    (sent): Linear(in_features=600, out_features=600, bias=True)
    (context): Linear(in_features=600, out_features=1, bias=False)
    (fc): Linear(in_features=600, out_features=2, bias=True)
    (pack): PackSequence()
    (unpack): PadPackedSequence()
  )
  (word_att_net_text): WordAttNet(
    (gru): GRU(300, 300, batch_first=True, bidirectional=True)
    (word): Linear(in_features=600, out_features=600, bias=True)
    (context): Linear(in_features=600, out_features=1, bias=False)
    (lookup): Embedding(26608, 300)
    (pack): PackSequence()
    (unpack): PadPackedSequence()
  )
)
optimizer: Adam (
Parameter Group 0
    amsgrad: False
    betas: (0.9, 0.999)
    eps: 1e-08
    lr: 0.0005
    weight_decay: 0
)
loss: CrossEntropyLoss()
[2020-05-02 20:27:51] - slp - ERROR -- Current run is terminating due to exception: .
[2020-05-02 20:27:51] - slp - WARNING -- CTRL-C caught. Exiting gracefully...
[2020-05-02 20:28:00] - slp - INFO -- PyTorch version 1.2.0 available.
…
[2020-05-02 21:34:55] - slp - INFO -- BENCHMARK: load(*(<slp.util.embeddings.EmbeddingsLoader object at 0x7fcf4963f4e0>,), **{}) took: 66.59992718696594 sec
[2020-05-02 21:39:41] - slp - INFO -- Trainer configured to run experiment
	pretrained model: None None
	checkpoint directory: ../checkpoints
	patience: 10
	accumulation steps: 1
	non blocking: True
	retain graph: False
	device: cuda
	model dtype: torch.float32
	parallel: False
[2020-05-02 21:39:41] - slp - INFO -- Trainer will run for
model: HierAttNet(
  (sent_att_net): SentAttNet(
    (gru): GRU(600, 300, batch_first=True, bidirectional=True)
    (sent): Linear(in_features=600, out_features=600, bias=True)
    (context): Linear(in_features=600, out_features=1, bias=False)
    (fc): Linear(in_features=600, out_features=2, bias=True)
    (pack): PackSequence()
    (unpack): PadPackedSequence()
  )
  (word_att_net_text): WordAttNet(
    (gru): GRU(300, 300, batch_first=True, bidirectional=True)
    (word): Linear(in_features=600, out_features=600, bias=True)
    (context): Linear(in_features=600, out_features=1, bias=False)
    (lookup): Embedding(26608, 300)
    (pack): PackSequence()
    (unpack): PadPackedSequence()
  )
)
optimizer: Adam (
Parameter Group 0
    amsgrad: False
    betas: (0.9, 0.999)
    eps: 1e-08
    lr: 0.0005
    weight_decay: 0
)
loss: CrossEntropyLoss()
[2020-05-03 01:29:52] - slp - INFO -- Trainer configured to run experiment
	pretrained model: None None
	checkpoint directory: ../checkpoints
	patience: 10
	accumulation steps: 1
	non blocking: True
	retain graph: False
	device: cuda
	model dtype: torch.float32
	parallel: False
[2020-05-03 01:29:52] - slp - INFO -- Trainer will run for
model: HierAttNet(
  (sent_att_net): SentAttNet(
    (gru): GRU(600, 300, batch_first=True, bidirectional=True)
    (sent): Linear(in_features=600, out_features=600, bias=True)
    (context): Linear(in_features=600, out_features=1, bias=False)
    (fc): Linear(in_features=600, out_features=2, bias=True)
    (pack): PackSequence()
    (unpack): PadPackedSequence()
  )
  (word_att_net_text): WordAttNet(
    (gru): GRU(300, 300, batch_first=True, bidirectional=True)
    (word): Linear(in_features=600, out_features=600, bias=True)
    (context): Linear(in_features=600, out_features=1, bias=False)
    (lookup): Embedding(26608, 300)
    (pack): PackSequence()
    (unpack): PadPackedSequence()
  )
)
optimizer: Adam (
Parameter Group 0
    amsgrad: False
    betas: (0.9, 0.999)
    eps: 1e-08
    lr: 0.0005
    weight_decay: 0
)
loss: CrossEntropyLoss()
[2020-05-03 05:20:54] - slp - INFO -- Trainer configured to run experiment
	pretrained model: None None
	checkpoint directory: ../checkpoints
	patience: 10
	accumulation steps: 1
	non blocking: True
	retain graph: False
	device: cuda
	model dtype: torch.float32
	parallel: False
[2020-05-03 05:20:54] - slp - INFO -- Trainer will run for
model: HierAttNet(
  (sent_att_net): SentAttNet(
    (gru): GRU(600, 300, batch_first=True, bidirectional=True)
    (sent): Linear(in_features=600, out_features=600, bias=True)
    (context): Linear(in_features=600, out_features=1, bias=False)
    (fc): Linear(in_features=600, out_features=2, bias=True)
    (pack): PackSequence()
    (unpack): PadPackedSequence()
  )
  (word_att_net_text): WordAttNet(
    (gru): GRU(300, 300, batch_first=True, bidirectional=True)
    (word): Linear(in_features=600, out_features=600, bias=True)
    (context): Linear(in_features=600, out_features=1, bias=False)
    (lookup): Embedding(26608, 300)
    (pack): PackSequence()
    (unpack): PadPackedSequence()
  )
)
optimizer: Adam (
Parameter Group 0
    amsgrad: False
    betas: (0.9, 0.999)
    eps: 1e-08
    lr: 0.0005
    weight_decay: 0
)
loss: CrossEntropyLoss()
[2020-05-03 09:18:25] - slp - INFO -- Trainer configured to run experiment
	pretrained model: None None
	checkpoint directory: ../checkpoints
	patience: 10
	accumulation steps: 1
	non blocking: True
	retain graph: False
	device: cuda
	model dtype: torch.float32
	parallel: False
[2020-05-03 09:18:25] - slp - INFO -- Trainer will run for
model: HierAttNet(
  (sent_att_net): SentAttNet(
    (gru): GRU(600, 300, batch_first=True, bidirectional=True)
    (sent): Linear(in_features=600, out_features=600, bias=True)
    (context): Linear(in_features=600, out_features=1, bias=False)
    (fc): Linear(in_features=600, out_features=2, bias=True)
    (pack): PackSequence()
    (unpack): PadPackedSequence()
  )
  (word_att_net_text): WordAttNet(
    (gru): GRU(300, 300, batch_first=True, bidirectional=True)
    (word): Linear(in_features=600, out_features=600, bias=True)
    (context): Linear(in_features=600, out_features=1, bias=False)
    (lookup): Embedding(26608, 300)
    (pack): PackSequence()
    (unpack): PadPackedSequence()
  )
)
optimizer: Adam (
Parameter Group 0
    amsgrad: False
    betas: (0.9, 0.999)
    eps: 1e-08
    lr: 0.0005
    weight_decay: 0
)
loss: CrossEntropyLoss()
[2020-05-03 12:32:32] - slp - INFO -- PyTorch version 1.2.0 available.
[2020-05-03 12:32:33] - slp - INFO -- Better speed can be achieved with apex installed from https://www.github.com/nvidia/apex .
…
[2020-05-03 16:32:40] - slp - INFO -- BENCHMARK: load(*(<slp.util.embeddings.EmbeddingsLoader object at 0x7f1e786b14e0>,), **{}) took: 69.82774877548218 sec
[2020-05-03 16:34:15] - slp - INFO -- Trainer configured to run experiment
	pretrained model: None None
	checkpoint directory: ../checkpoints
	patience: 10
	accumulation steps: 1
	non blocking: True
	retain graph: False
	device: cuda
	model dtype: torch.float32
	parallel: False
[2020-05-03 16:34:15] - slp - INFO -- Trainer will run for
model: HierAttNet(
  (sent_att_net): SentAttNet(
    (gru): GRU(600, 300, batch_first=True, bidirectional=True)
    (sent): Linear(in_features=600, out_features=600, bias=True)
    (context): Linear(in_features=600, out_features=1, bias=False)
    (fc): Linear(in_features=600, out_features=2, bias=True)
    (pack): PackSequence()
    (unpack): PadPackedSequence()
  )
  (word_att_net_text): WordAttNet(
    (gru): GRU(300, 300, batch_first=True, bidirectional=True)
    (word): Linear(in_features=600, out_features=600, bias=True)
    (context): Linear(in_features=600, out_features=1, bias=False)
    (lookup): Embedding(26608, 300)
    (pack): PackSequence()
    (unpack): PadPackedSequence()
  )
)
optimizer: Adam (
Parameter Group 0
    amsgrad: False
    betas: (0.9, 0.999)
    eps: 1e-08
    lr: 0.0005
    weight_decay: 0
)
loss: CrossEntropyLoss()
[2020-05-03 17:19:53] - slp - INFO -- Trainer configured to run experiment
	pretrained model: None None
	checkpoint directory: ../checkpoints
	patience: 10
	accumulation steps: 1
	non blocking: True
	retain graph: False
	device: cuda
	model dtype: torch.float32
	parallel: False
[2020-05-03 17:19:53] - slp - INFO -- Trainer will run for
model: HierAttNet(
  (sent_att_net): SentAttNet(
    (gru): GRU(600, 300, batch_first=True, bidirectional=True)
    (sent): Linear(in_features=600, out_features=600, bias=True)
    (context): Linear(in_features=600, out_features=1, bias=False)
    (fc): Linear(in_features=600, out_features=2, bias=True)
    (pack): PackSequence()
    (unpack): PadPackedSequence()
  )
  (word_att_net_text): WordAttNet(
    (gru): GRU(300, 300, batch_first=True, bidirectional=True)
    (word): Linear(in_features=600, out_features=600, bias=True)
    (context): Linear(in_features=600, out_features=1, bias=False)
    (lookup): Embedding(26608, 300)
    (pack): PackSequence()
    (unpack): PadPackedSequence()
  )
)
optimizer: Adam (
Parameter Group 0
    amsgrad: False
    betas: (0.9, 0.999)
    eps: 1e-08
    lr: 0.0005
    weight_decay: 0
)
loss: CrossEntropyLoss()
[2020-05-03 18:38:01] - slp - INFO -- Trainer configured to run experiment
	pretrained model: None None
	checkpoint directory: ../checkpoints
	patience: 10
	accumulation steps: 1
	non blocking: True
	retain graph: False
	device: cuda
	model dtype: torch.float32
	parallel: False
[2020-05-03 18:38:01] - slp - INFO -- Trainer will run for
model: HierAttNet(
  (sent_att_net): SentAttNet(
    (gru): GRU(600, 300, batch_first=True, bidirectional=True)
    (sent): Linear(in_features=600, out_features=600, bias=True)
    (context): Linear(in_features=600, out_features=1, bias=False)
    (fc): Linear(in_features=600, out_features=2, bias=True)
    (pack): PackSequence()
    (unpack): PadPackedSequence()
  )
  (word_att_net_text): WordAttNet(
    (gru): GRU(300, 300, batch_first=True, bidirectional=True)
    (word): Linear(in_features=600, out_features=600, bias=True)
    (context): Linear(in_features=600, out_features=1, bias=False)
    (lookup): Embedding(26608, 300)
    (pack): PackSequence()
    (unpack): PadPackedSequence()
  )
)
optimizer: Adam (
Parameter Group 0
    amsgrad: False
    betas: (0.9, 0.999)
    eps: 1e-08
    lr: 0.0005
    weight_decay: 0
)
loss: CrossEntropyLoss()
[2020-05-03 19:15:25] - slp - INFO -- Trainer configured to run experiment
	pretrained model: None None
	checkpoint directory: ../checkpoints
	patience: 10
	accumulation steps: 1
	non blocking: True
	retain graph: False
	device: cuda
	model dtype: torch.float32
	parallel: False
[2020-05-03 19:15:25] - slp - INFO -- Trainer will run for
model: HierAttNet(
  (sent_att_net): SentAttNet(
    (gru): GRU(600, 300, batch_first=True, bidirectional=True)
    (sent): Linear(in_features=600, out_features=600, bias=True)
    (context): Linear(in_features=600, out_features=1, bias=False)
    (fc): Linear(in_features=600, out_features=2, bias=True)
    (pack): PackSequence()
    (unpack): PadPackedSequence()
  )
  (word_att_net_text): WordAttNet(
    (gru): GRU(300, 300, batch_first=True, bidirectional=True)
    (word): Linear(in_features=600, out_features=600, bias=True)
    (context): Linear(in_features=600, out_features=1, bias=False)
    (lookup): Embedding(26608, 300)
    (pack): PackSequence()
    (unpack): PadPackedSequence()
  )
)
optimizer: Adam (
Parameter Group 0
    amsgrad: False
    betas: (0.9, 0.999)
    eps: 1e-08
    lr: 0.0005
    weight_decay: 0
)
loss: CrossEntropyLoss()
[2020-05-03 20:03:11] - slp - INFO -- Trainer configured to run experiment
	pretrained model: None None
	checkpoint directory: ../checkpoints
	patience: 10
	accumulation steps: 1
	non blocking: True
	retain graph: False
	device: cuda
	model dtype: torch.float32
	parallel: False
[2020-05-03 20:03:11] - slp - INFO -- Trainer will run for
model: HierAttNet(
  (sent_att_net): SentAttNet(
    (gru): GRU(600, 300, batch_first=True, bidirectional=True)
    (sent): Linear(in_features=600, out_features=600, bias=True)
    (context): Linear(in_features=600, out_features=1, bias=False)
    (fc): Linear(in_features=600, out_features=2, bias=True)
    (pack): PackSequence()
    (unpack): PadPackedSequence()
  )
  (word_att_net_text): WordAttNet(
    (gru): GRU(300, 300, batch_first=True, bidirectional=True)
    (word): Linear(in_features=600, out_features=600, bias=True)
    (context): Linear(in_features=600, out_features=1, bias=False)
    (lookup): Embedding(26608, 300)
    (pack): PackSequence()
    (unpack): PadPackedSequence()
  )
)
optimizer: Adam (
Parameter Group 0
    amsgrad: False
    betas: (0.9, 0.999)
    eps: 1e-08
    lr: 0.0005
    weight_decay: 0
)
loss: CrossEntropyLoss()
[2020-05-03 20:48:15] - slp - INFO -- PyTorch version 1.2.0 available.
[2020-05-03 20:48:15] - slp - INFO -- Better speed can be achieved with apex installed from https://www.github.com/nvidia/apex .
…
[2020-05-04 01:32:28] - slp - INFO -- BENCHMARK: load(*(<slp.util.embeddings.EmbeddingsLoader object at 0x7fd31e51f4e0>,), **{}) took: 62.620824337005615 sec
[2020-05-04 01:34:38] - slp - INFO -- Trainer configured to run experiment
	pretrained model: None None
	checkpoint directory: ../checkpoints
	patience: 10
	accumulation steps: 1
	non blocking: True
	retain graph: False
	device: cuda
	model dtype: torch.float32
	parallel: False
[2020-05-04 01:34:38] - slp - INFO -- Trainer will run for
model: HierAttNet(
  (sent_att_net): SentAttNet(
    (gru): GRU(600, 300, batch_first=True, bidirectional=True)
    (sent): Linear(in_features=600, out_features=600, bias=True)
    (context): Linear(in_features=600, out_features=1, bias=False)
    (fc): Linear(in_features=600, out_features=2, bias=True)
    (pack): PackSequence()
    (unpack): PadPackedSequence()
  )
  (word_att_net_text): WordAttNet(
    (gru): GRU(300, 300, batch_first=True, bidirectional=True)
    (word): Linear(in_features=600, out_features=600, bias=True)
    (context): Linear(in_features=600, out_features=1, bias=False)
    (lookup): Embedding(26608, 300)
    (pack): PackSequence()
    (unpack): PadPackedSequence()
  )
)
optimizer: Adam (
Parameter Group 0
    amsgrad: False
    betas: (0.9, 0.999)
    eps: 1e-08
    lr: 0.0005
    weight_decay: 0
)
loss: CrossEntropyLoss()
[2020-05-04 06:15:54] - slp - INFO -- Trainer configured to run experiment
	pretrained model: None None
	checkpoint directory: ../checkpoints
	patience: 10
	accumulation steps: 1
	non blocking: True
	retain graph: False
	device: cuda
	model dtype: torch.float32
	parallel: False
[2020-05-04 06:15:54] - slp - INFO -- Trainer will run for
model: HierAttNet(
  (sent_att_net): SentAttNet(
    (gru): GRU(600, 300, batch_first=True, bidirectional=True)
    (sent): Linear(in_features=600, out_features=600, bias=True)
    (context): Linear(in_features=600, out_features=1, bias=False)
    (fc): Linear(in_features=600, out_features=2, bias=True)
    (pack): PackSequence()
    (unpack): PadPackedSequence()
  )
  (word_att_net_text): WordAttNet(
    (gru): GRU(300, 300, batch_first=True, bidirectional=True)
    (word): Linear(in_features=600, out_features=600, bias=True)
    (context): Linear(in_features=600, out_features=1, bias=False)
    (lookup): Embedding(26608, 300)
    (pack): PackSequence()
    (unpack): PadPackedSequence()
  )
)
optimizer: Adam (
Parameter Group 0
    amsgrad: False
    betas: (0.9, 0.999)
    eps: 1e-08
    lr: 0.0005
    weight_decay: 0
)
loss: CrossEntropyLoss()
[2020-05-04 09:48:41] - slp - INFO -- Trainer configured to run experiment
	pretrained model: None None
	checkpoint directory: ../checkpoints
	patience: 10
	accumulation steps: 1
	non blocking: True
	retain graph: False
	device: cuda
	model dtype: torch.float32
	parallel: False
[2020-05-04 09:48:41] - slp - INFO -- Trainer will run for
model: HierAttNet(
  (sent_att_net): SentAttNet(
    (gru): GRU(600, 300, batch_first=True, bidirectional=True)
    (sent): Linear(in_features=600, out_features=600, bias=True)
    (context): Linear(in_features=600, out_features=1, bias=False)
    (fc): Linear(in_features=600, out_features=2, bias=True)
    (pack): PackSequence()
    (unpack): PadPackedSequence()
  )
  (word_att_net_text): WordAttNet(
    (gru): GRU(300, 300, batch_first=True, bidirectional=True)
    (word): Linear(in_features=600, out_features=600, bias=True)
    (context): Linear(in_features=600, out_features=1, bias=False)
    (lookup): Embedding(26608, 300)
    (pack): PackSequence()
    (unpack): PadPackedSequence()
  )
)
optimizer: Adam (
Parameter Group 0
    amsgrad: False
    betas: (0.9, 0.999)
    eps: 1e-08
    lr: 0.0005
    weight_decay: 0
)
loss: CrossEntropyLoss()
[2020-05-04 12:02:19] - slp - INFO -- Trainer configured to run experiment
	pretrained model: None None
	checkpoint directory: ../checkpoints
	patience: 10
	accumulation steps: 1
	non blocking: True
	retain graph: False
	device: cuda
	model dtype: torch.float32
	parallel: False
[2020-05-04 12:02:19] - slp - INFO -- Trainer will run for
model: HierAttNet(
  (sent_att_net): SentAttNet(
    (gru): GRU(600, 300, batch_first=True, bidirectional=True)
    (sent): Linear(in_features=600, out_features=600, bias=True)
    (context): Linear(in_features=600, out_features=1, bias=False)
    (fc): Linear(in_features=600, out_features=2, bias=True)
    (pack): PackSequence()
    (unpack): PadPackedSequence()
  )
  (word_att_net_text): WordAttNet(
    (gru): GRU(300, 300, batch_first=True, bidirectional=True)
    (word): Linear(in_features=600, out_features=600, bias=True)
    (context): Linear(in_features=600, out_features=1, bias=False)
    (lookup): Embedding(26608, 300)
    (pack): PackSequence()
    (unpack): PadPackedSequence()
  )
)
optimizer: Adam (
Parameter Group 0
    amsgrad: False
    betas: (0.9, 0.999)
    eps: 1e-08
    lr: 0.0005
    weight_decay: 0
)
loss: CrossEntropyLoss()
[2020-05-04 13:37:10] - slp - INFO -- Trainer configured to run experiment
	pretrained model: None None
	checkpoint directory: ../checkpoints
	patience: 10
	accumulation steps: 1
	non blocking: True
	retain graph: False
	device: cuda
	model dtype: torch.float32
	parallel: False
[2020-05-04 13:37:10] - slp - INFO -- Trainer will run for
model: HierAttNet(
  (sent_att_net): SentAttNet(
    (gru): GRU(600, 300, batch_first=True, bidirectional=True)
    (sent): Linear(in_features=600, out_features=600, bias=True)
    (context): Linear(in_features=600, out_features=1, bias=False)
    (fc): Linear(in_features=600, out_features=2, bias=True)
    (pack): PackSequence()
    (unpack): PadPackedSequence()
  )
  (word_att_net_text): WordAttNet(
    (gru): GRU(300, 300, batch_first=True, bidirectional=True)
    (word): Linear(in_features=600, out_features=600, bias=True)
    (context): Linear(in_features=600, out_features=1, bias=False)
    (lookup): Embedding(26608, 300)
    (pack): PackSequence()
    (unpack): PadPackedSequence()
  )
)
optimizer: Adam (
Parameter Group 0
    amsgrad: False
    betas: (0.9, 0.999)
    eps: 1e-08
    lr: 0.0005
    weight_decay: 0
)
loss: CrossEntropyLoss()
[2020-05-04 14:42:01] - slp - ERROR -- Current run is terminating due to exception: .
[2020-05-04 14:42:01] - slp - WARNING -- CTRL-C caught. Exiting gracefully...
[2020-05-04 14:42:01] - slp - INFO -- Trainer configured to run experiment
	pretrained model: None None
	checkpoint directory: ../checkpoints
	patience: 10
	accumulation steps: 1
	non blocking: True
	retain graph: False
	device: cuda
	model dtype: torch.float32
	parallel: False
[2020-05-04 14:42:01] - slp - INFO -- Trainer will run for
model: HierAttNet(
  (sent_att_net): SentAttNet(
    (gru): GRU(600, 300, batch_first=True, bidirectional=True)
    (sent): Linear(in_features=600, out_features=600, bias=True)
    (context): Linear(in_features=600, out_features=1, bias=False)
    (fc): Linear(in_features=600, out_features=2, bias=True)
    (pack): PackSequence()
    (unpack): PadPackedSequence()
  )
  (word_att_net_text): WordAttNet(
    (gru): GRU(300, 300, batch_first=True, bidirectional=True)
    (word): Linear(in_features=600, out_features=600, bias=True)
    (context): Linear(in_features=600, out_features=1, bias=False)
    (lookup): Embedding(26608, 300)
    (pack): PackSequence()
    (unpack): PadPackedSequence()
  )
)
optimizer: Adam (
Parameter Group 0
    amsgrad: False
    betas: (0.9, 0.999)
    eps: 1e-08
    lr: 0.0005
    weight_decay: 0
)
loss: CrossEntropyLoss()
[2020-05-04 14:42:02] - slp - ERROR -- Current run is terminating due to exception: .
[2020-05-04 14:42:02] - slp - WARNING -- CTRL-C caught. Exiting gracefully...
[2020-05-04 15:38:01] - slp - INFO -- Trainer configured to run experiment
	pretrained model: None None
	checkpoint directory: ../checkpoints
	patience: 10
	accumulation steps: 1
	non blocking: True
	retain graph: False
	device: cuda
	model dtype: torch.float32
	parallel: False
[2020-05-04 15:38:01] - slp - INFO -- Trainer will run for
model: HierAttNet(
  (sent_att_net): SentAttNet(
    (gru): GRU(600, 300, batch_first=True, bidirectional=True)
    (sent): Linear(in_features=600, out_features=600, bias=True)
    (context): Linear(in_features=600, out_features=1, bias=False)
    (fc): Linear(in_features=600, out_features=2, bias=True)
    (pack): PackSequence()
    (unpack): PadPackedSequence()
  )
  (word_att_net_text): WordAttNet(
    (gru): GRU(300, 300, batch_first=True, bidirectional=True)
    (word): Linear(in_features=600, out_features=600, bias=True)
    (context): Linear(in_features=600, out_features=1, bias=False)
    (lookup): Embedding(26608, 300)
    (pack): PackSequence()
    (unpack): PadPackedSequence()
  )
)
optimizer: Adam (
Parameter Group 0
    amsgrad: False
    betas: (0.9, 0.999)
    eps: 1e-08
    lr: 0.0005
    weight_decay: 0
)
loss: CrossEntropyLoss()
[2020-05-04 17:56:23] - slp - ERROR -- Current run is terminating due to exception: .
[2020-05-04 17:56:23] - slp - WARNING -- CTRL-C caught. Exiting gracefully...
[2020-05-04 17:56:23] - slp - INFO -- Trainer configured to run experiment
	pretrained model: None None
	checkpoint directory: ../checkpoints
	patience: 10
	accumulation steps: 1
	non blocking: True
	retain graph: False
	device: cuda
	model dtype: torch.float32
	parallel: False
[2020-05-04 17:56:23] - slp - INFO -- Trainer will run for
model: HierAttNet(
  (sent_att_net): SentAttNet(
    (gru): GRU(600, 300, batch_first=True, bidirectional=True)
    (sent): Linear(in_features=600, out_features=600, bias=True)
    (context): Linear(in_features=600, out_features=1, bias=False)
    (fc): Linear(in_features=600, out_features=2, bias=True)
    (pack): PackSequence()
    (unpack): PadPackedSequence()
  )
  (word_att_net_text): WordAttNet(
    (gru): GRU(300, 300, batch_first=True, bidirectional=True)
    (word): Linear(in_features=600, out_features=600, bias=True)
    (context): Linear(in_features=600, out_features=1, bias=False)
    (lookup): Embedding(26608, 300)
    (pack): PackSequence()
    (unpack): PadPackedSequence()
  )
)
optimizer: Adam (
Parameter Group 0
    amsgrad: False
    betas: (0.9, 0.999)
    eps: 1e-08
    lr: 0.0005
    weight_decay: 0
)
loss: CrossEntropyLoss()
[2020-05-04 20:54:36] - slp - INFO -- PyTorch version 1.2.0 available.
[2020-05-04 20:54:36] - slp - INFO -- Better speed can be achieved with apex installed from https://www.github.com/nvidia/apex .
…
[2020-05-04 21:46:32] - slp - INFO -- BENCHMARK: load(*(<slp.util.embeddings.EmbeddingsLoader object at 0x7f666c1454e0>,), **{}) took: 170.51605248451233 sec
[2020-05-04 21:48:40] - slp - INFO -- Trainer configured to run experiment
	pretrained model: None None
	checkpoint directory: ../checkpoints
	patience: 10
	accumulation steps: 1
	non blocking: True
	retain graph: False
	device: cuda
	model dtype: torch.float32
	parallel: False
[2020-05-04 21:48:40] - slp - INFO -- Trainer will run for
model: HierAttNet(
  (sent_att_net): SentAttNet(
    (gru): GRU(600, 300, batch_first=True, bidirectional=True)
    (sent): Linear(in_features=600, out_features=600, bias=True)
    (context): Linear(in_features=600, out_features=1, bias=False)
    (fc): Linear(in_features=600, out_features=2, bias=True)
    (pack): PackSequence()
    (unpack): PadPackedSequence()
  )
  (word_att_net_text): WordAttNet(
    (gru): GRU(300, 300, batch_first=True, bidirectional=True)
    (word): Linear(in_features=600, out_features=600, bias=True)
    (context): Linear(in_features=600, out_features=1, bias=False)
    (lookup): Embedding(2196022, 300)
    (pack): PackSequence()
    (unpack): PadPackedSequence()
  )
)
optimizer: Adam (
Parameter Group 0
    amsgrad: False
    betas: (0.9, 0.999)
    eps: 1e-08
    lr: 0.0005
    weight_decay: 0
)
loss: CrossEntropyLoss()
[2020-05-04 22:56:52] - slp - INFO -- Trainer configured to run experiment
	pretrained model: None None
	checkpoint directory: None
	patience: 10
	accumulation steps: 1
	non blocking: True
	retain graph: False
	device: cuda
	model dtype: torch.float32
	parallel: False
[2020-05-04 22:56:52] - slp - INFO -- Trainer will run for
model: HierAttNet(
  (sent_att_net): SentAttNet(
    (gru): GRU(600, 300, batch_first=True, bidirectional=True)
    (sent): Linear(in_features=600, out_features=600, bias=True)
    (context): Linear(in_features=600, out_features=1, bias=False)
    (fc): Linear(in_features=600, out_features=2, bias=True)
    (pack): PackSequence()
    (unpack): PadPackedSequence()
  )
  (word_att_net_text): WordAttNet(
    (gru): GRU(300, 300, batch_first=True, bidirectional=True)
    (word): Linear(in_features=600, out_features=600, bias=True)
    (context): Linear(in_features=600, out_features=1, bias=False)
    (lookup): Embedding(2196022, 300)
    (pack): PackSequence()
    (unpack): PadPackedSequence()
  )
)
optimizer: Adam (
Parameter Group 0
    amsgrad: False
    betas: (0.9, 0.999)
    eps: 1e-08
    lr: 0.0005
    weight_decay: 0
)
loss: CrossEntropyLoss()
[2020-05-05 01:10:09] - slp - INFO -- Trainer configured to run experiment
	pretrained model: None None
	checkpoint directory: ../checkpoints
	patience: 10
	accumulation steps: 1
	non blocking: True
	retain graph: False
	device: cuda
	model dtype: torch.float32
	parallel: False
[2020-05-05 01:10:09] - slp - INFO -- Trainer will run for
model: HierAttNet(
  (sent_att_net): SentAttNet(
    (gru): GRU(600, 300, batch_first=True, bidirectional=True)
    (sent): Linear(in_features=600, out_features=600, bias=True)
    (context): Linear(in_features=600, out_features=1, bias=False)
    (fc): Linear(in_features=600, out_features=2, bias=True)
    (pack): PackSequence()
    (unpack): PadPackedSequence()
  )
  (word_att_net_text): WordAttNet(
    (gru): GRU(300, 300, batch_first=True, bidirectional=True)
    (word): Linear(in_features=600, out_features=600, bias=True)
    (context): Linear(in_features=600, out_features=1, bias=False)
    (lookup): Embedding(2196022, 300)
    (pack): PackSequence()
    (unpack): PadPackedSequence()
  )
)
optimizer: Adam (
Parameter Group 0
    amsgrad: False
    betas: (0.9, 0.999)
    eps: 1e-08
    lr: 0.0005
    weight_decay: 0
)
loss: CrossEntropyLoss()
[2020-05-05 02:02:34] - slp - INFO -- Trainer configured to run experiment
	pretrained model: None None
	checkpoint directory: None
	patience: 10
	accumulation steps: 1
	non blocking: True
	retain graph: False
	device: cuda
	model dtype: torch.float32
	parallel: False
[2020-05-05 02:02:34] - slp - INFO -- Trainer will run for
model: HierAttNet(
  (sent_att_net): SentAttNet(
    (gru): GRU(600, 300, batch_first=True, bidirectional=True)
    (sent): Linear(in_features=600, out_features=600, bias=True)
    (context): Linear(in_features=600, out_features=1, bias=False)
    (fc): Linear(in_features=600, out_features=2, bias=True)
    (pack): PackSequence()
    (unpack): PadPackedSequence()
  )
  (word_att_net_text): WordAttNet(
    (gru): GRU(300, 300, batch_first=True, bidirectional=True)
    (word): Linear(in_features=600, out_features=600, bias=True)
    (context): Linear(in_features=600, out_features=1, bias=False)
    (lookup): Embedding(2196022, 300)
    (pack): PackSequence()
    (unpack): PadPackedSequence()
  )
)
optimizer: Adam (
Parameter Group 0
    amsgrad: False
    betas: (0.9, 0.999)
    eps: 1e-08
    lr: 0.0005
    weight_decay: 0
)
loss: CrossEntropyLoss()
[2020-05-05 03:49:48] - slp - INFO -- Trainer configured to run experiment
	pretrained model: None None
	checkpoint directory: None
	patience: 10
	accumulation steps: 1
	non blocking: True
	retain graph: False
	device: cuda
	model dtype: torch.float32
	parallel: False
[2020-05-05 03:49:48] - slp - INFO -- Trainer will run for
model: HierAttNet(
  (sent_att_net): SentAttNet(
    (gru): GRU(600, 300, batch_first=True, bidirectional=True)
    (sent): Linear(in_features=600, out_features=600, bias=True)
    (context): Linear(in_features=600, out_features=1, bias=False)
    (fc): Linear(in_features=600, out_features=2, bias=True)
    (pack): PackSequence()
    (unpack): PadPackedSequence()
  )
  (word_att_net_text): WordAttNet(
    (gru): GRU(300, 300, batch_first=True, bidirectional=True)
    (word): Linear(in_features=600, out_features=600, bias=True)
    (context): Linear(in_features=600, out_features=1, bias=False)
    (lookup): Embedding(2196022, 300)
    (pack): PackSequence()
    (unpack): PadPackedSequence()
  )
)
optimizer: Adam (
Parameter Group 0
    amsgrad: False
    betas: (0.9, 0.999)
    eps: 1e-08
    lr: 0.0005
    weight_decay: 0
)
loss: CrossEntropyLoss()
[2020-05-05 03:50:05] - slp - INFO -- Trainer configured to run experiment
	pretrained model: None None
	checkpoint directory: ../checkpoints
	patience: 10
	accumulation steps: 1
	non blocking: True
	retain graph: False
	device: cuda
	model dtype: torch.float32
	parallel: False
[2020-05-05 03:50:05] - slp - INFO -- Trainer will run for
model: HierAttNet(
  (sent_att_net): SentAttNet(
    (gru): GRU(600, 300, batch_first=True, bidirectional=True)
    (sent): Linear(in_features=600, out_features=600, bias=True)
    (context): Linear(in_features=600, out_features=1, bias=False)
    (fc): Linear(in_features=600, out_features=2, bias=True)
    (pack): PackSequence()
    (unpack): PadPackedSequence()
  )
  (word_att_net_text): WordAttNet(
    (gru): GRU(300, 300, batch_first=True, bidirectional=True)
    (word): Linear(in_features=600, out_features=600, bias=True)
    (context): Linear(in_features=600, out_features=1, bias=False)
    (lookup): Embedding(2196022, 300)
    (pack): PackSequence()
    (unpack): PadPackedSequence()
  )
)
optimizer: Adam (
Parameter Group 0
    amsgrad: False
    betas: (0.9, 0.999)
    eps: 1e-08
    lr: 0.0005
    weight_decay: 0
)
loss: CrossEntropyLoss()
[2020-05-05 05:37:08] - slp - INFO -- Trainer configured to run experiment
	pretrained model: None None
	checkpoint directory: None
	patience: 10
	accumulation steps: 1
	non blocking: True
	retain graph: False
	device: cuda
	model dtype: torch.float32
	parallel: False
[2020-05-05 05:37:08] - slp - INFO -- Trainer will run for
model: HierAttNet(
  (sent_att_net): SentAttNet(
    (gru): GRU(600, 300, batch_first=True, bidirectional=True)
    (sent): Linear(in_features=600, out_features=600, bias=True)
    (context): Linear(in_features=600, out_features=1, bias=False)
    (fc): Linear(in_features=600, out_features=2, bias=True)
    (pack): PackSequence()
    (unpack): PadPackedSequence()
  )
  (word_att_net_text): WordAttNet(
    (gru): GRU(300, 300, batch_first=True, bidirectional=True)
    (word): Linear(in_features=600, out_features=600, bias=True)
    (context): Linear(in_features=600, out_features=1, bias=False)
    (lookup): Embedding(2196022, 300)
    (pack): PackSequence()
    (unpack): PadPackedSequence()
  )
)
optimizer: Adam (
Parameter Group 0
    amsgrad: False
    betas: (0.9, 0.999)
    eps: 1e-08
    lr: 0.0005
    weight_decay: 0
)
loss: CrossEntropyLoss()
[2020-05-05 07:31:30] - slp - INFO -- Trainer configured to run experiment
	pretrained model: None None
	checkpoint directory: ../checkpoints
	patience: 10
	accumulation steps: 1
	non blocking: True
	retain graph: False
	device: cuda
	model dtype: torch.float32
	parallel: False
[2020-05-05 07:31:30] - slp - INFO -- Trainer will run for
model: HierAttNet(
  (sent_att_net): SentAttNet(
    (gru): GRU(600, 300, batch_first=True, bidirectional=True)
    (sent): Linear(in_features=600, out_features=600, bias=True)
    (context): Linear(in_features=600, out_features=1, bias=False)
    (fc): Linear(in_features=600, out_features=2, bias=True)
    (pack): PackSequence()
    (unpack): PadPackedSequence()
  )
  (word_att_net_text): WordAttNet(
    (gru): GRU(300, 300, batch_first=True, bidirectional=True)
    (word): Linear(in_features=600, out_features=600, bias=True)
    (context): Linear(in_features=600, out_features=1, bias=False)
    (lookup): Embedding(2196022, 300)
    (pack): PackSequence()
    (unpack): PadPackedSequence()
  )
)
optimizer: Adam (
Parameter Group 0
    amsgrad: False
    betas: (0.9, 0.999)
    eps: 1e-08
    lr: 0.0005
    weight_decay: 0
)
loss: CrossEntropyLoss()
[2020-05-05 08:16:48] - slp - INFO -- PyTorch version 1.2.0 available.
[2020-05-05 08:16:48] - slp - INFO -- Better speed can be achieved with apex installed from https://www.github.com/nvidia/apex .
…
[2020-05-05 12:36:10] - slp - INFO -- BENCHMARK: load(*(<slp.util.embeddings.EmbeddingsLoader object at 0x7fa3dc4104e0>,), **{}) took: 156.20729851722717 sec
[2020-05-05 12:37:38] - slp - INFO -- Trainer configured to run experiment
	pretrained model: None None
	checkpoint directory: ../checkpoints
	patience: 10
	accumulation steps: 1
	non blocking: True
	retain graph: False
	device: cuda
	model dtype: torch.float32
	parallel: False
[2020-05-05 12:37:38] - slp - INFO -- Trainer will run for
model: HierAttNet(
  (sent_att_net): SentAttNet(
    (gru): GRU(600, 300, batch_first=True, bidirectional=True)
    (sent): Linear(in_features=600, out_features=600, bias=True)
    (context): Linear(in_features=600, out_features=1, bias=False)
    (fc): Linear(in_features=600, out_features=2, bias=True)
    (pack): PackSequence()
    (unpack): PadPackedSequence()
  )
  (word_att_net_text): WordAttNet(
    (gru): GRU(300, 300, batch_first=True, bidirectional=True)
    (word): Linear(in_features=600, out_features=600, bias=True)
    (context): Linear(in_features=600, out_features=1, bias=False)
    (lookup): Embedding(2196022, 300)
    (pack): PackSequence()
    (unpack): PadPackedSequence()
  )
)
optimizer: Adam (
Parameter Group 0
    amsgrad: False
    betas: (0.9, 0.999)
    eps: 1e-08
    lr: 0.0005
    weight_decay: 0
)
loss: CrossEntropyLoss()
[2020-05-05 14:00:33] - slp - INFO -- Trainer configured to run experiment
	pretrained model: None None
	checkpoint directory: ../checkpoints
	patience: 10
	accumulation steps: 1
	non blocking: True
	retain graph: False
	device: cuda
	model dtype: torch.float32
	parallel: False
[2020-05-05 14:00:33] - slp - INFO -- Trainer will run for
model: HierAttNet(
  (sent_att_net): SentAttNet(
    (gru): GRU(600, 300, batch_first=True, bidirectional=True)
    (sent): Linear(in_features=600, out_features=600, bias=True)
    (context): Linear(in_features=600, out_features=1, bias=False)
    (fc): Linear(in_features=600, out_features=2, bias=True)
    (pack): PackSequence()
    (unpack): PadPackedSequence()
  )
  (word_att_net_text): WordAttNet(
    (gru): GRU(300, 300, batch_first=True, bidirectional=True)
    (word): Linear(in_features=600, out_features=600, bias=True)
    (context): Linear(in_features=600, out_features=1, bias=False)
    (lookup): Embedding(2196022, 300)
    (pack): PackSequence()
    (unpack): PadPackedSequence()
  )
)
optimizer: Adam (
Parameter Group 0
    amsgrad: False
    betas: (0.9, 0.999)
    eps: 1e-08
    lr: 0.0005
    weight_decay: 0
)
loss: CrossEntropyLoss()
[2020-05-05 15:11:38] - slp - INFO -- Trainer configured to run experiment
	pretrained model: None None
	checkpoint directory: ../checkpoints
	patience: 10
	accumulation steps: 1
	non blocking: True
	retain graph: False
	device: cuda
	model dtype: torch.float32
	parallel: False
[2020-05-05 15:11:38] - slp - INFO -- Trainer will run for
model: HierAttNet(
  (sent_att_net): SentAttNet(
    (gru): GRU(600, 300, batch_first=True, bidirectional=True)
    (sent): Linear(in_features=600, out_features=600, bias=True)
    (context): Linear(in_features=600, out_features=1, bias=False)
    (fc): Linear(in_features=600, out_features=2, bias=True)
    (pack): PackSequence()
    (unpack): PadPackedSequence()
  )
  (word_att_net_text): WordAttNet(
    (gru): GRU(300, 300, batch_first=True, bidirectional=True)
    (word): Linear(in_features=600, out_features=600, bias=True)
    (context): Linear(in_features=600, out_features=1, bias=False)
    (lookup): Embedding(2196022, 300)
    (pack): PackSequence()
    (unpack): PadPackedSequence()
  )
)
optimizer: Adam (
Parameter Group 0
    amsgrad: False
    betas: (0.9, 0.999)
    eps: 1e-08
    lr: 0.0005
    weight_decay: 0
)
loss: CrossEntropyLoss()
[2020-05-05 16:07:17] - slp - INFO -- Trainer configured to run experiment
	pretrained model: None None
	checkpoint directory: ../checkpoints
	patience: 10
	accumulation steps: 1
	non blocking: True
	retain graph: False
	device: cuda
	model dtype: torch.float32
	parallel: False
[2020-05-05 16:07:17] - slp - INFO -- Trainer will run for
model: HierAttNet(
  (sent_att_net): SentAttNet(
    (gru): GRU(600, 300, batch_first=True, bidirectional=True)
    (sent): Linear(in_features=600, out_features=600, bias=True)
    (context): Linear(in_features=600, out_features=1, bias=False)
    (fc): Linear(in_features=600, out_features=2, bias=True)
    (pack): PackSequence()
    (unpack): PadPackedSequence()
  )
  (word_att_net_text): WordAttNet(
    (gru): GRU(300, 300, batch_first=True, bidirectional=True)
    (word): Linear(in_features=600, out_features=600, bias=True)
    (context): Linear(in_features=600, out_features=1, bias=False)
    (lookup): Embedding(2196022, 300)
    (pack): PackSequence()
    (unpack): PadPackedSequence()
  )
)
optimizer: Adam (
Parameter Group 0
    amsgrad: False
    betas: (0.9, 0.999)
    eps: 1e-08
    lr: 0.0005
    weight_decay: 0
)
loss: CrossEntropyLoss()
[2020-05-05 16:18:24] - slp - INFO -- PyTorch version 1.2.0 available.
[2020-05-05 16:18:25] - slp - INFO -- Better speed can be achieved with apex installed from https://www.github.com/nvidia/apex .
…
[2020-05-05 16:20:59] - slp - INFO -- BENCHMARK: load(*(<slp.util.embeddings.EmbeddingsLoader object at 0x7f5e962b05f8>,), **{}) took: 154.132417678833 sec
[2020-05-05 16:22:59] - slp - INFO -- Trainer configured to run experiment
	pretrained model: None None
	checkpoint directory: None
	patience: 10
	accumulation steps: 1
	non blocking: True
	retain graph: False
	device: cuda
	model dtype: torch.float32
	parallel: False
[2020-05-05 16:22:59] - slp - INFO -- Trainer will run for
model: HierAttNet(
  (sent_att_net): SentAttNet(
    (gru): GRU(600, 300, batch_first=True, bidirectional=True)
    (sent): Linear(in_features=600, out_features=600, bias=True)
    (context): Linear(in_features=600, out_features=1, bias=False)
    (fc): Linear(in_features=600, out_features=2, bias=True)
    (pack): PackSequence()
    (unpack): PadPackedSequence()
  )
  (word_att_net_text): WordAttNet(
    (gru): GRU(300, 300, batch_first=True, bidirectional=True)
    (word): Linear(in_features=600, out_features=600, bias=True)
    (context): Linear(in_features=600, out_features=1, bias=False)
    (lookup): Embedding(2196022, 300)
    (pack): PackSequence()
    (unpack): PadPackedSequence()
  )
)
optimizer: Adam (
Parameter Group 0
    amsgrad: False
    betas: (0.9, 0.999)
    eps: 1e-08
    lr: 0.0005
    weight_decay: 0
)
loss: CrossEntropyLoss()
[2020-05-05 17:00:48] - slp - INFO -- Trainer configured to run experiment
	pretrained model: None None
	checkpoint directory: ../checkpoints
	patience: 10
	accumulation steps: 1
	non blocking: True
	retain graph: False
	device: cuda
	model dtype: torch.float32
	parallel: False
[2020-05-05 17:00:48] - slp - INFO -- Trainer will run for
model: HierAttNet(
  (sent_att_net): SentAttNet(
    (gru): GRU(600, 300, batch_first=True, bidirectional=True)
    (sent): Linear(in_features=600, out_features=600, bias=True)
    (context): Linear(in_features=600, out_features=1, bias=False)
    (fc): Linear(in_features=600, out_features=2, bias=True)
    (pack): PackSequence()
    (unpack): PadPackedSequence()
  )
  (word_att_net_text): WordAttNet(
    (gru): GRU(300, 300, batch_first=True, bidirectional=True)
    (word): Linear(in_features=600, out_features=600, bias=True)
    (context): Linear(in_features=600, out_features=1, bias=False)
    (lookup): Embedding(2196022, 300)
    (pack): PackSequence()
    (unpack): PadPackedSequence()
  )
)
optimizer: Adam (
Parameter Group 0
    amsgrad: False
    betas: (0.9, 0.999)
    eps: 1e-08
    lr: 0.0005
    weight_decay: 0
)
loss: CrossEntropyLoss()
[2020-05-05 17:49:02] - slp - INFO -- Trainer configured to run experiment
	pretrained model: None None
	checkpoint directory: None
	patience: 10
	accumulation steps: 1
	non blocking: True
	retain graph: False
	device: cuda
	model dtype: torch.float32
	parallel: False
[2020-05-05 17:49:02] - slp - INFO -- Trainer will run for
model: HierAttNet(
  (sent_att_net): SentAttNet(
    (gru): GRU(600, 300, batch_first=True, bidirectional=True)
    (sent): Linear(in_features=600, out_features=600, bias=True)
    (context): Linear(in_features=600, out_features=1, bias=False)
    (fc): Linear(in_features=600, out_features=2, bias=True)
    (pack): PackSequence()
    (unpack): PadPackedSequence()
  )
  (word_att_net_text): WordAttNet(
    (gru): GRU(300, 300, batch_first=True, bidirectional=True)
    (word): Linear(in_features=600, out_features=600, bias=True)
    (context): Linear(in_features=600, out_features=1, bias=False)
    (lookup): Embedding(2196022, 300)
    (pack): PackSequence()
    (unpack): PadPackedSequence()
  )
)
optimizer: Adam (
Parameter Group 0
    amsgrad: False
    betas: (0.9, 0.999)
    eps: 1e-08
    lr: 0.0005
    weight_decay: 0
)
loss: CrossEntropyLoss()
[2020-05-05 20:30:25] - slp - INFO -- Trainer configured to run experiment
	pretrained model: None None
	checkpoint directory: None
	patience: 10
	accumulation steps: 1
	non blocking: True
	retain graph: False
	device: cuda
	model dtype: torch.float32
	parallel: False
[2020-05-05 20:30:25] - slp - INFO -- Trainer will run for
model: HierAttNet(
  (sent_att_net): SentAttNet(
    (gru): GRU(600, 300, batch_first=True, bidirectional=True)
    (sent): Linear(in_features=600, out_features=600, bias=True)
    (context): Linear(in_features=600, out_features=1, bias=False)
    (fc): Linear(in_features=600, out_features=2, bias=True)
    (pack): PackSequence()
    (unpack): PadPackedSequence()
  )
  (word_att_net_text): WordAttNet(
    (gru): GRU(300, 300, batch_first=True, bidirectional=True)
    (word): Linear(in_features=600, out_features=600, bias=True)
    (context): Linear(in_features=600, out_features=1, bias=False)
    (lookup): Embedding(2196022, 300)
    (pack): PackSequence()
    (unpack): PadPackedSequence()
  )
)
optimizer: Adam (
Parameter Group 0
    amsgrad: False
    betas: (0.9, 0.999)
    eps: 1e-08
    lr: 0.0005
    weight_decay: 0
)
loss: CrossEntropyLoss()
[2020-05-05 22:32:01] - slp - INFO -- Trainer configured to run experiment
	pretrained model: None None
	checkpoint directory: None
	patience: 10
	accumulation steps: 1
	non blocking: True
	retain graph: False
	device: cuda
	model dtype: torch.float32
	parallel: False
[2020-05-05 22:32:01] - slp - INFO -- Trainer will run for
model: HierAttNet(
  (sent_att_net): SentAttNet(
    (gru): GRU(600, 300, batch_first=True, bidirectional=True)
    (sent): Linear(in_features=600, out_features=600, bias=True)
    (context): Linear(in_features=600, out_features=1, bias=False)
    (fc): Linear(in_features=600, out_features=2, bias=True)
    (pack): PackSequence()
    (unpack): PadPackedSequence()
  )
  (word_att_net_text): WordAttNet(
    (gru): GRU(300, 300, batch_first=True, bidirectional=True)
    (word): Linear(in_features=600, out_features=600, bias=True)
    (context): Linear(in_features=600, out_features=1, bias=False)
    (lookup): Embedding(2196022, 300)
    (pack): PackSequence()
    (unpack): PadPackedSequence()
  )
)
optimizer: Adam (
Parameter Group 0
    amsgrad: False
    betas: (0.9, 0.999)
    eps: 1e-08
    lr: 0.0005
    weight_decay: 0
)
loss: CrossEntropyLoss()
[2020-05-06 00:15:47] - slp - INFO -- Trainer configured to run experiment
	pretrained model: None None
	checkpoint directory: None
	patience: 10
	accumulation steps: 1
	non blocking: True
	retain graph: False
	device: cuda
	model dtype: torch.float32
	parallel: False
[2020-05-06 00:15:48] - slp - INFO -- Trainer will run for
model: HierAttNet(
  (sent_att_net): SentAttNet(
    (gru): GRU(600, 300, batch_first=True, bidirectional=True)
    (sent): Linear(in_features=600, out_features=600, bias=True)
    (context): Linear(in_features=600, out_features=1, bias=False)
    (fc): Linear(in_features=600, out_features=2, bias=True)
    (pack): PackSequence()
    (unpack): PadPackedSequence()
  )
  (word_att_net_text): WordAttNet(
    (gru): GRU(300, 300, batch_first=True, bidirectional=True)
    (word): Linear(in_features=600, out_features=600, bias=True)
    (context): Linear(in_features=600, out_features=1, bias=False)
    (lookup): Embedding(2196022, 300)
    (pack): PackSequence()
    (unpack): PadPackedSequence()
  )
)
optimizer: Adam (
Parameter Group 0
    amsgrad: False
    betas: (0.9, 0.999)
    eps: 1e-08
    lr: 0.0005
    weight_decay: 0
)
loss: CrossEntropyLoss()
[2020-05-07 16:05:16] - slp - INFO -- PyTorch version 1.2.0 available.
[2020-05-07 16:05:16] - slp - INFO -- Better speed can be achieved with apex installed from https://www.github.com/nvidia/apex .
…
[2020-05-07 16:31:31] - slp - INFO -- BENCHMARK: load(*(<slp.util.embeddings.EmbeddingsLoader object at 0x7f0f57b6ce10>,), **{}) took: 157.59252953529358 sec
[2020-05-07 16:31:57] - slp - INFO -- Trainer configured to run experiment
	pretrained model: None None
	checkpoint directory: ../checkpoints
	patience: 30
	accumulation steps: 1
	non blocking: True
	retain graph: False
	device: cuda
	model dtype: torch.float32
	parallel: False
[2020-05-07 16:31:57] - slp - INFO -- Trainer will run for
model: HierAttNet(
  (sent_att_net): SentAttNet(
    (gru): GRU(699, 300, batch_first=True, bidirectional=True)
    (sent): Linear(in_features=600, out_features=600, bias=True)
    (context): Linear(in_features=600, out_features=1, bias=False)
    (fc): Linear(in_features=600, out_features=2, bias=True)
    (pack): PackSequence()
    (unpack): PadPackedSequence()
  )
  (word_att_net_text): WordAttNet(
    (gru): GRU(300, 300, batch_first=True, bidirectional=True)
    (word): Linear(in_features=699, out_features=699, bias=True)
    (context): Linear(in_features=699, out_features=1, bias=False)
    (lookup): Embedding(2196022, 300)
    (pack): PackSequence()
    (unpack): PadPackedSequence()
  )
)
optimizer: Adam (
Parameter Group 0
    amsgrad: False
    betas: (0.9, 0.999)
    eps: 1e-08
    lr: 0.0005
    weight_decay: 0
)
loss: CrossEntropyLoss()
[2020-05-07 16:31:58] - slp - ERROR -- Current run is terminating due to exception: size mismatch, m1: [40 x 600], m2: [699 x 699] at /pytorch/aten/src/THC/generic/THCTensorMathBlas.cu:273.
…
[2020-07-02 20:33:45] - slp - INFO -- BENCHMARK: load(*(<slp.util.embeddings.EmbeddingsLoader object at 0x7fcfdda07470>,), **{}) took: 162.69465017318726 sec
[2020-07-02 20:34:17] - slp - INFO -- Trainer configured to run experiment
	pretrained model: None None
	checkpoint directory: ../checkpoints
	patience: 10
	accumulation steps: 1
	non blocking: True
	retain graph: False
	device: cuda
	model dtype: torch.float32
	parallel: False
[2020-07-02 20:34:17] - slp - INFO -- Trainer will run for
model: HierAttNet(
  (sent_att_net): SentAttNet(
    (gru): GRU(600, 300, batch_first=True, bidirectional=True)
    (sent): Linear(in_features=600, out_features=600, bias=True)
    (context): Linear(in_features=600, out_features=1, bias=False)
    (fc): Linear(in_features=600, out_features=2, bias=True)
    (pack): PackSequence()
    (unpack): PadPackedSequence()
  )
  (word_att_net_text): WordAttNet(
    (gru): GRU(300, 300, batch_first=True, bidirectional=True)
    (word): Linear(in_features=600, out_features=600, bias=True)
    (context): Linear(in_features=600, out_features=1, bias=False)
    (lookup): Embedding(2196022, 300)
    (pack): PackSequence()
    (unpack): PadPackedSequence()
  )
)
optimizer: Adam (
Parameter Group 0
    amsgrad: False
    betas: (0.9, 0.999)
    eps: 1e-08
    lr: 0.0005
    weight_decay: 0
)
loss: CrossEntropyLoss()
[2020-07-02 22:06:02] - slp - INFO -- Trainer configured to run experiment
	pretrained model: None None
	checkpoint directory: ../checkpoints
	patience: 10
	accumulation steps: 1
	non blocking: True
	retain graph: False
	device: cuda
	model dtype: torch.float32
	parallel: False
[2020-07-02 22:06:02] - slp - INFO -- Trainer will run for
model: HierAttNet(
  (sent_att_net): SentAttNet(
    (gru): GRU(600, 300, batch_first=True, bidirectional=True)
    (sent): Linear(in_features=600, out_features=600, bias=True)
    (context): Linear(in_features=600, out_features=1, bias=False)
    (fc): Linear(in_features=600, out_features=2, bias=True)
    (pack): PackSequence()
    (unpack): PadPackedSequence()
  )
  (word_att_net_text): WordAttNet(
    (gru): GRU(300, 300, batch_first=True, bidirectional=True)
    (word): Linear(in_features=600, out_features=600, bias=True)
    (context): Linear(in_features=600, out_features=1, bias=False)
    (lookup): Embedding(2196022, 300)
    (pack): PackSequence()
    (unpack): PadPackedSequence()
  )
)
optimizer: Adam (
Parameter Group 0
    amsgrad: False
    betas: (0.9, 0.999)
    eps: 1e-08
    lr: 0.0005
    weight_decay: 0
)
loss: CrossEntropyLoss()
[2020-07-02 23:19:37] - slp - INFO -- Trainer configured to run experiment
	pretrained model: None None
	checkpoint directory: ../checkpoints
	patience: 10
	accumulation steps: 1
	non blocking: True
	retain graph: False
	device: cuda
	model dtype: torch.float32
	parallel: False
[2020-07-02 23:19:37] - slp - INFO -- Trainer will run for
model: HierAttNet(
  (sent_att_net): SentAttNet(
    (gru): GRU(600, 300, batch_first=True, bidirectional=True)
    (sent): Linear(in_features=600, out_features=600, bias=True)
    (context): Linear(in_features=600, out_features=1, bias=False)
    (fc): Linear(in_features=600, out_features=2, bias=True)
    (pack): PackSequence()
    (unpack): PadPackedSequence()
  )
  (word_att_net_text): WordAttNet(
    (gru): GRU(300, 300, batch_first=True, bidirectional=True)
    (word): Linear(in_features=600, out_features=600, bias=True)
    (context): Linear(in_features=600, out_features=1, bias=False)
    (lookup): Embedding(2196022, 300)
    (pack): PackSequence()
    (unpack): PadPackedSequence()
  )
)
optimizer: Adam (
Parameter Group 0
    amsgrad: False
    betas: (0.9, 0.999)
    eps: 1e-08
    lr: 0.0005
    weight_decay: 0
)
loss: CrossEntropyLoss()
[2020-07-03 00:10:19] - slp - INFO -- Trainer configured to run experiment
	pretrained model: None None
	checkpoint directory: ../checkpoints
	patience: 10
	accumulation steps: 1
	non blocking: True
	retain graph: False
	device: cuda
	model dtype: torch.float32
	parallel: False
[2020-07-03 00:10:19] - slp - INFO -- Trainer will run for
model: HierAttNet(
  (sent_att_net): SentAttNet(
    (gru): GRU(600, 300, batch_first=True, bidirectional=True)
    (sent): Linear(in_features=600, out_features=600, bias=True)
    (context): Linear(in_features=600, out_features=1, bias=False)
    (fc): Linear(in_features=600, out_features=2, bias=True)
    (pack): PackSequence()
    (unpack): PadPackedSequence()
  )
  (word_att_net_text): WordAttNet(
    (gru): GRU(300, 300, batch_first=True, bidirectional=True)
    (word): Linear(in_features=600, out_features=600, bias=True)
    (context): Linear(in_features=600, out_features=1, bias=False)
    (lookup): Embedding(2196022, 300)
    (pack): PackSequence()
    (unpack): PadPackedSequence()
  )
)
optimizer: Adam (
Parameter Group 0
    amsgrad: False
    betas: (0.9, 0.999)
    eps: 1e-08
    lr: 0.0005
    weight_decay: 0
)
loss: CrossEntropyLoss()
[2020-07-03 01:47:49] - slp - INFO -- Trainer configured to run experiment
	pretrained model: None None
	checkpoint directory: ../checkpoints
	patience: 10
	accumulation steps: 1
	non blocking: True
	retain graph: False
	device: cuda
	model dtype: torch.float32
	parallel: False
[2020-07-03 01:47:49] - slp - INFO -- Trainer will run for
model: HierAttNet(
  (sent_att_net): SentAttNet(
    (gru): GRU(600, 300, batch_first=True, bidirectional=True)
    (sent): Linear(in_features=600, out_features=600, bias=True)
    (context): Linear(in_features=600, out_features=1, bias=False)
    (fc): Linear(in_features=600, out_features=2, bias=True)
    (pack): PackSequence()
    (unpack): PadPackedSequence()
  )
  (word_att_net_text): WordAttNet(
    (gru): GRU(300, 300, batch_first=True, bidirectional=True)
    (word): Linear(in_features=600, out_features=600, bias=True)
    (context): Linear(in_features=600, out_features=1, bias=False)
    (lookup): Embedding(2196022, 300)
    (pack): PackSequence()
    (unpack): PadPackedSequence()
  )
)
optimizer: Adam (
Parameter Group 0
    amsgrad: False
    betas: (0.9, 0.999)
    eps: 1e-08
    lr: 0.0005
    weight_decay: 0
)
loss: CrossEntropyLoss()
[2020-07-03 14:45:34] - slp - INFO -- PyTorch version 1.2.0 available.
[2020-07-03 14:45:34] - slp - INFO -- Better speed can be achieved with apex installed from https://www.github.com/nvidia/apex .
…
